fcpo/save-dir/fairrec.pt (torch_old, 445131 bytes, 11 tensors)

0.weight f4 [64, 500]
000000 cf 87 45 be 2c 13 e1 3d cb 68 75 3c 2a b9 a8 3c
       -0.19290088 0.10989985 0.014978598 0.020596106
000010 e2 11 d8 bd 1e ac e5 bd 81 a5 a4 bd 91 99 02 3d
       -0.10550286 -0.112144694 -0.0803938 0.031884734
000020 c3 c5 47 be 26 df c4 bd 46 e3 c3 bd 5e ea f8 3d
       -0.19509034 -0.09612875 -0.09564833 0.12154077
000030 7a 28 4e 3c 83 f5 82 bd 08 22 9c 3c 76 f1 3b 3d
       0.012582893 -0.06394484 0.019059196 0.045884572
000040 e2 54 92 3d 52 ea 34 3d 13 47 bf bd cf 22 f4 bd
       0.07145096 0.044168778 -0.09339728 -0.11920702
000050 4c bc e9 bd e9 d0 fa bd 56 52 f2 bc 92 4d 87 bd
       -0.11412868 -0.12246878 -0.029580276 -0.06606592
000060 2e dc 90 3d 50 14 fe 3d 11 3f 9a 3c 37 e9 e2 bd
       0.07073246 0.12406218 0.0188289 -0.110796385
000070 df c5 20 3e d0 74 5a bd a0 74 8e 3c 9f 3e d6 3d
       0.15700482 -0.053334057 0.017389596 0.10461163
000080 8c 53 f9 3d 98 0a 3a 3e 4d f4 f2 bd a1 a1 3f 3e
       0.121741384 0.18168104 -0.11863003 0.18714
000090 9e 8d b2 bd 4d 54 bf bd 40 d2 f0 3d 00 d6 36 be
       -0.087184176 -0.09342251 0.11758852 -0.17855072
0000a0 51 32 15 be 91 fb 18 3e 69 91 2c 3d 33 21 f5 bc
       -0.14569975 0.14939715 0.04213086 -0.029923057
0000b0 09 16 62 3d 60 ae a5 3e 30 67 48 3c cb 81 28 3e
       0.055196796 0.323596 0.012231633 0.16455762
0000c0 30 2a d0 bc 2d 29 61 3c 6c b9 b0 3d 8d b0 94 3d
       -0.025410742 0.013742727 0.086291164 0.07260237
0000d0 7d 62 3c 3e 20 b9 e0 3d bc 4a da bd 9b d1 9f bc
       0.18396945 0.1097281 -0.10658786 -0.019509127
0000e0 f2 de 30 be dd 9c c6 bd 89 81 19 bd 51 57 af bc
       -0.17272547 -0.09697888 -0.03747705 -0.02140394
0000f0 dc 2a 1f 3e 76 ae fe bd a2 16 41 3e 80 0f 75 bd
       0.15543693 -0.124356195 0.1885629 -0.059829235
000100 40 51 34 bb 39 0f 15 be c2 86 21 bd 7c 3c d3 bd
       -0.002751425 -0.14556588 -0.039435156 -0.10314271
000110 6b be bf bc e8 57 2e 3e 9f 52 8f 3c 98 ec 4c bd
       -0.023406228 0.17025721 0.017495451 -0.05003032
000120 77 2e 37 bd ac 85 0b 3e c2 40 6d 3d f0 f1 d0 bd
       -0.044722047 0.1362521 0.057923086 -0.10202396
000130 83 16 63 3c 80 21 39 3d 65 f1 e2 3d ed 16 8c 3d
       0.013860348 0.045197964 0.110811986 0.0684031
000140 c0 5d cd 3c 3f 4d 59 3e cd 74 97 bc 30 7e 5e 3d
       0.025069118 0.21220873 -0.018488312 0.05431956
000150 da 43 c7 3c 54 a8 6a 3d a9 b6 05 bb 78 d7 7f bd
       0.024324346 0.057289436 -0.0020403063 -0.062461346
000160 9a 1b 0d 3c 84 4f 5e 3d 23 0d 55 bc 2c d6 e8 3d
       0.008612538 0.05427505 -0.01300362 0.11368975
000170 12 38 3d 3b 2f 0a da 3c f9 c8 27 be d6 ef 48 bd
       0.0028872532 0.026616184 -0.16385259 -0.04905685
000180 30 e5 27 be 79 d8 8b 3d 09 8e d7 b9 7a b6 09 bd
       -0.16396022 0.06828398 -0.0004111382 -0.03362129
000190 ef af d6 bd 7a f2 01 3d 83 19 f1 3d f8 1e 84 3c
       -0.104827754 0.031725384 0.11772444 0.016128048
0001a0 89 b6 f0 bc d3 c4 a5 3d b0 4c 8c 3d 87 cd 53 3d
       -0.029383915 0.08094182 0.068505645 0.051709678
0001b0 16 c9 a7 3d f7 94 e9 bd e1 17 30 3e b8 7a a1 3d
       0.08192651 -0.11405366 0.17196609 0.07884735
0001c0 ae f4 ee bd c2 9e fa bd 32 76 07 3b 4f 85 1a bc
       -0.11667763 -0.12237312 0.0020669815 -0.009431197
0001d0 d9 56 ef bc 09 3b ff 3d a9 77 8f bd 7c b5 d4 3c
       -0.029216217 0.12462432 -0.07005245 0.025965445
0001e0 11 7e 1f be a3 69 ae bd af 59 da 3d 59 27 c1 3d
       -0.15575434 -0.08516242 0.10661637 0.09431333
0001f0 3d 78 99 3d fa 90 2a bd 1c 93 88 bd cd 55 93 3d
       0.07493637 -0.041642167 -0.06668684 0.071940996
000200 f2 28 6f 3d c6 6c a2 3c e8 ed 0b be f7 20 85 3c
       0.058388658 0.019827258 -0.13664973 0.01625107
000210 6e bc b0 3d ab 7e b6 bd df f2 60 bc 77 a7 48 bd
       0.0862969 -0.08910879 -0.01372978 -0.048987832
000220 ac ac 20 3c b8 fd b7 bd 35 dd a7 3b 6b eb 8b 3d
       0.009806793 -0.0898394 0.0051228055 0.06832012
000230 02 b9 6e bd 07 64 82 3d 6a 08 e9 bd 06 70 7d bc
       -0.058281906 0.06366735 -0.11378558 -0.015468603
000240 54 18 48 3e 80 fd c8 3c 46 1e 46 bd 87 ce d3 3c
       0.1954053 0.02453494 -0.048368715 0.025855316
000250 ba 3b 5c bd 8a c4 4e be 11 5a c0 bd 0f 76 9c 3d
       -0.053767897 -0.20192161 -0.09392179 0.076397054
000260 ff 99 7a bd 14 b9 f7 bc 63 6a 45 3e 76 d1 3d 3d
       -0.06118202 -0.03023962 0.19278865 0.046342336
000270 a3 1c 7c bd be 78 99 3d 49 39 95 bd f1 0a 62 bd
       -0.061550748 0.07493733 -0.07286317 -0.055186216
000280 c0 7b 39 3d 15 92 74 bc a5 7c cf 3d 82 0a 76 3d
       0.045284033 -0.014927407 0.10131196 0.060068615
000290 5c 34 d3 3c 74 8d ca 3b 77 e0 11 3d 17 c1 70 3d
       0.025781803 0.0061814133 0.035614457 0.058777895
0002a0 60 fb 06 bc d8 53 74 bc 48 6b 9f 3d 4a 51 95 bd
       -0.008238643 -0.014912568 0.07784134 -0.07290895
0002b0 5f 02 8e bc 35 31 37 bd 80 a0 f7 3c a7 d9 ae 3d
       -0.017335115 -0.04472466 0.0302279 0.08537608
0002c0 8d 13 2d be 5f bc 1d 3d 20 9e a2 3d 9b cd 90 3d
       -0.1690199 0.038509723 0.07940316 0.07070466
0002d0 cc 2c 95 bd 4d a0 c6 3d 9d 01 e2 bc e9 3d 36 3d
       -0.07283935 0.09698544 -0.02758866 0.044492636
0002e0 7b 24 29 3d c1 48 3b 3b 21 63 74 3d 0c a1 0d 3d
       0.041294556 0.00285773 0.05966485 0.034577414
0002f0 16 5d 44 3b 97 7f 92 bd 0c a9 59 bd 8a cd 6e bd
       0.002996271 -0.07153242 -0.05313973 -0.058301486
000300 f6 04 ef 3d 71 e9 cd 3c 2c 95 55 bd a9 e2 79 3d
       0.11670868 0.025135728 -0.052144215 0.061007176
000310 ad df b7 bc ff 02 9c bd 06 c2 35 3d 3b ff c2 3c
       -0.022445524 -0.07617759 0.04437449 0.023803344
000320 d2 64 0c bd 7f b3 22 3e ae e5 46 3c ba 6b f3 3d
       -0.034275837 0.15888785 0.012139721 0.118857816
000330 0f bd 45 3e 8a 80 75 bd 7c 28 a3 bc 73 d4 71 bd
       0.19310401 -0.059937038 -0.019916765 -0.059040498
000340 b8 a0 12 3e c3 98 88 3d 5c e1 93 3d 2b 98 2f be
       0.14319122 0.06669762 0.07220718 -0.17147891
000350 52 37 a0 bd a7 79 ed bd 80 3b b1 3d 8d 43 2a 3e
       -0.078230515 -0.11595469 0.08653927 0.16627331
000360 56 55 ca 3b c5 dc 21 3d 45 fa a3 bc fb 0d d4 bd
       0.0061747236 0.039517183 -0.020016799 -0.10354229
000370 2e 9e 46 3e 45 f5 3c 3e fb 8e 2d 3d 60 4f 05 bd
       0.19396278 0.18452938 0.042372685 -0.0325464
000380 ef df f9 bc b8 ba 0f 3d 7d d0 c3 bd 4f 3a f4 bd
       -0.030502288 0.03509018 -0.0956125 -0.11925184
000390 ff 49 50 3d 91 26 eb 3d 4b 21 7c 3d 86 d5 96 bd
       0.05085182 0.11481965 0.06155519 -0.07364945
0003a0 85 a1 35 bd af 5a 19 be 97 27 05 be 16 c6 80 bc
       -0.04434349 -0.14976 -0.13003384 -0.015719455
0003b0 c3 0f 83 3c 24 d9 58 be 7c ca e1 bb f1 84 d0 bd
       0.015998727 -0.21176583 -0.006890593 -0.101816066
0003c0 5a f1 9b be ae fc 92 bb ef 8e f6 bd dd d2 db 3d
       -0.30457574 -0.004485688 -0.12038981 0.10733578
0003d0 7d 7f 27 3e 54 13 e0 3d fb 03 c4 3d 49 19 90 bd
       0.16357227 0.109411865 0.09571072 -0.07036073
0003e0 f3 6b 5b 3c 3b da a6 3c ca a6 89 bd c4 a0 75 3d
       0.013392436 0.020367732 -0.067212656 0.05996777
0003f0 00 3b 12 bc c0 78 4f 3e 51 45 c3 bb 9b 64 78 bd
       -0.0089251995 0.20260906 -0.005959191 -0.06064282

0.bias f4 [64]
000000 bd 2d c6 be 2a d2 f6 bc f6 2b 1a 3e 90 28 87 3d
       -0.3870677 -0.03012951 0.15055832 0.065995336
000010 61 6b 83 3c 13 1a b7 bb df 07 cb 3d b0 36 60 bd
       0.016042413 -0.005587825 0.09913611 -0.054739654
000020 04 24 22 3f 4b 85 34 bd 22 84 84 3d b9 3f 21 3d
       0.63336205 -0.04407243 0.06470515 0.03936741
000030 b8 e3 90 3e c8 95 3c bc 65 63 82 3d 29 78 06 3d
       0.28298736 -0.01151032 0.06366614 0.032829437
000040 9d eb 2d be 52 67 8a be fe 2e 7d 3d ad 65 8c 3b
       -0.1698441 -0.27031952 0.061812393 0.0042845816
000050 92 3c 9b 3d 1c ab cb bc 5f f7 09 3d c7 8e 8d bd
       0.07579912 -0.024861865 0.033683177 -0.06911998
000060 69 e3 76 bd 33 6c 02 3e 11 7f 2b bd 5f f2 d1 3d
       -0.06027547 0.12736587 -0.041869227 0.10251307
000070 e6 20 6f 3e 22 7e fd bc c4 ff 2d 3c 27 84 f7 3c
       0.23352394 -0.030943934 0.010620061 0.030214382
000080 09 a0 f4 3d d3 33 ab be ce 4e a1 3e ab de 4a be
       0.11944587 -0.33437976 0.31505436 -0.19811504
000090 31 4a 5b 3d c0 52 a8 3d 4c 0d 10 be 6d 37 6c 3e
       0.05353755 0.08218908 -0.14067572 0.23068018
0000a0 3a 73 bd bb a1 e7 38 3c de 6b 2a 3d b3 77 db 3d
       -0.0057815583 0.011285693 0.041606776 0.1071619
0000b0 b2 e3 85 3c 3d 24 ca bb 7b bf a7 3c 65 cc 71 3e
       0.016343925 -0.0061688707 0.020477047 0.23613127
0000c0 63 a2 18 bc 86 42 0a bb 0c ed ae bd a1 1b 45 3d
       -0.00931606 -0.002109678 -0.08541307 0.048122052
0000d0 0e 5e c0 3b 97 49 f5 3c 35 03 40 3e 63 21 c0 3e
       0.005870587 0.029942317 0.18751223 0.37525472
0000e0 5f 88 82 bc 5e 39 f1 bc d9 00 a7 3d d9 6e 16 3d
       -0.015934167 -0.0294463 0.081544586 0.036726806
0000f0 70 6e a3 3e ad 57 ff bd 2b 5d a0 bd bd d9 f2 3c
       0.31920195 -0.12467895 -0.078302704 0.029644841

2.weight f4 [100, 64]
000000 c3 e3 ee 3d 19 33 8e bc 3d 89 9c 3d 0c c0 8b 3d
       0.11664536 -0.01735835 0.076433636 0.068237394
000010 b9 e5 f9 bd 4c 3e 23 3d fe 72 4b bd fe de 26 bd
       -0.12202019 0.039854333 -0.049670212 -0.040740006
000020 a0 9b 9e 3e 4c 70 cd bd 78 cb 8a bd 8e 9f b3 ba
       0.30978107 -0.100311846 -0.0677709 -0.0013704167
000030 38 9a 95 3d a1 e8 53 3b 02 11 ee 3c f2 51 76 bd
       0.073048055 0.0032334703 0.029060844 -0.060136743
000040 20 88 b5 bd f8 71 cb bd 51 69 c4 3d b0 a8 0c 3d
       -0.088638544 -0.09933847 0.095904 0.03434056
000050 e2 c4 b7 bd ca 51 a8 3d d3 67 11 3d 5a ce 5d bd
       -0.08973099 0.08218725 0.035499405 -0.05415187
000060 1a f8 c5 3d 9f 1e c4 bd 77 79 33 bd c4 86 b8 bd
       0.09666462 -0.09576153 -0.04381701 -0.090100795
000070 51 c3 dc bd 72 d7 9f 3b 03 ca 58 bc bf ef d9 bd
       -0.10779441 0.004877978 -0.013231757 -0.10641431
000080 f4 ab a8 3d 1e ec ea 3d 06 d8 a4 bd d6 01 ae 3d
       0.082359225 0.11470817 -0.08049016 0.08496444
000090 fc 53 78 bd c8 f4 03 3d 39 37 0f 3e d4 d7 f6 3d
       -0.06062697 0.032215863 0.1398591 0.12052885
0000a0 2d 32 d5 3d be 6d 90 bd bd 61 10 3d eb 87 15 3d
       0.10409961 -0.07052182 0.03524946 0.036506575
0000b0 4f 53 9c 3c 23 c3 1a 3c ac 41 5a bd ed 53 87 bd
       0.019082693 0.009445938 -0.053285286 -0.066078044
0000c0 0d ad 02 bd 01 97 81 bc 54 9f 35 3c 9b b0 94 3c
       -0.031903315 -0.015819075 0.01108535 0.018150618
0000d0 06 64 88 bc 2b 65 cd 3d 3b 23 33 3e dd 96 fa bd
       -0.016649257 0.10029062 0.17493908 -0.12235806
0000e0 d6 7e 60 bd bf 1e 00 be 24 4c 80 3c 92 59 17 3c
       -0.05480846 -0.12511729 0.015661307 0.009237664
0000f0 55 b4 84 bd e6 f9 06 3e c3 86 4f bd 31 37 ad 3d
       -0.06479708 0.13181266 -0.05066563 0.084577926
000100 ef 68 02 3d 0a b8 c3 3c 38 11 5c bc c5 a7 b0 3c
       0.031838354 0.023891468 -0.01343184 0.021564374
000110 38 4a c1 3c 89 30 72 bc 19 42 92 bd b8 66 3f bd
       0.02359496 -0.0147820795 -0.071415134 -0.04672882
000120 ea fe 1d be 2c 5f 5f 3c b2 b5 15 bd 74 9a 3f bb
       -0.15429273 0.013633531 -0.03655023 -0.0029236348
000130 d0 25 6d 3c 34 bb 64 bd 23 95 70 bd ea 80 31 3d
       0.014474347 -0.055842593 -0.058735978 0.043335833
000140 27 7c d4 3d 10 40 0c 3c b0 88 54 3d 9a 2a 19 bd
       0.10375243 0.008560196 0.051888168 -0.037394144
000150 71 d9 92 3c 5a 0f 45 bc 63 a0 9e 3b db 14 f2 bc
       0.01792595 -0.012027586 0.004840897 -0.02955096
000160 72 fb 32 3c ec 10 47 3d ed 29 27 bd 1e 3e 6c 3c
       0.010924207 0.048600122 -0.040811468 0.014419107
000170 a6 b5 9e 3d 38 50 7f 3b d7 8d ae 3b cd 9e 9d 3c
       0.077494904 0.0038957726 0.005326967 0.019240761
000180 d2 9f e4 bc 8b 89 b2 bc 15 83 55 3c bf ac 43 bd
       -0.02790824 -0.021794101 0.013031741 -0.047772165
000190 07 8e 59 3d 50 b6 3c 3d 2b fa 3c 3d 17 7d 2d bd
       0.053113963 0.046072304 0.046137016 -0.042355623
0001a0 da 37 90 bd 63 71 7a 3d 3a 64 7d 3d 00 25 9d bc
       -0.07041903 0.06114329 0.06186316 -0.019182682
0001b0 b8 ca 37 3c 38 06 49 bc 94 04 cd 3c 1c 1b 11 3d
       0.0112177655 -0.012269549 0.025026597 0.035426244
0001c0 12 09 16 3c e1 3d 17 3b bf 74 b0 bd aa 52 07 3c
       0.009157436 0.0023077654 -0.086160176 0.008259455
0001d0 16 35 48 3d 5a 40 44 bc 6f f0 51 bd b6 ca 2f bd
       0.04887875 -0.011978233 -0.051254686 -0.04291793
0001e0 86 88 21 bc a0 1f 2e bc 9c 61 b2 3c fc 7c c7 bc
       -0.00985921 -0.010627657 0.02177506 -0.02435159
0001f0 b7 69 be 3c 99 6e 81 bc 5e c0 95 3a e8 2c 08 3d
       0.023243768 -0.015799807 0.0011425128 0.03324595
000200 ff 3a 08 be f9 c0 80 bb 33 15 d9 bc 7a 55 23 bc
       -0.13303755 -0.003929254 -0.026499366 -0.00996911
000210 72 ea f5 3c 12 07 bb 3d 3d 9a 39 3e 4f 37 15 bc
       0.030019019 0.09132208 0.18125243 -0.009107425
000220 06 bd 52 be ab 6e 9c 3d 86 a0 3f 3d 13 6e 23 3d
       -0.20579919 0.07638296 0.046783946 0.039899897
000230 19 94 d2 bd df 9f 08 3c fa e5 c6 bb 12 6c 9c bc
       -0.10282154 0.0083388975 -0.006069896 -0.0190945
000240 0c c1 b8 3d 6d 70 2a 3e c6 eb b9 bd ea 36 4f 3d
       0.09021196 0.1664445 -0.09078173 0.05058948
000250 14 4c 2f 3d 4f 41 9b 3d ab df b8 bd fc 7c f9 3c
       0.042797163 0.07580816 -0.09027036 0.030455105
000260 28 8f 21 3d fe d3 2d 3d e8 87 aa bc 56 a5 07 3d
       0.039443165 0.0424385 -0.020816758 0.03311666
000270 66 1c 69 3d 07 0a 71 bd a6 80 a5 bb 8e 96 65 3d
       0.05691185 -0.058847453 -0.0050507365 0.056051783
000280 fa 07 7f bd d7 a3 14 3c 4d 53 0c 3e 7a 65 e3 bc
       -0.062263466 0.009072266 0.13703652 -0.027758349
000290 df 45 e8 bc ed 67 da 3c c2 fe 9a bd 60 3b 2c bd
       -0.02835363 0.026660884 -0.075681224 -0.042048812
0002a0 70 8c 40 bd 37 18 69 bd b1 eb 9a bb 6c c4 74 bc
       -0.04700893 -0.05690786 -0.0047278036 -0.014939409
0002b0 26 78 93 ba 4c 58 63 3d 41 ee 39 3d b1 78 e1 3d
       -0.0011251017 0.05550413 0.045393232 0.11009348
0002c0 1c 8c 49 3d 1d d6 8f 3d a6 f1 a9 3d 59 3f 82 bd
       0.049205884 0.07023261 0.08298044 -0.06359739
0002d0 9e b9 ed bc ac 69 62 bd 12 ac 15 bd eb f6 e6 3d
       -0.029019173 -0.055276558 -0.036541052 0.112775646
0002e0 d0 6f b7 bd f5 da f1 3c 9e c5 5e bc 04 5f bb 3d
       -0.089568734 0.029523352 -0.01359692 0.09148982
0002f0 c9 ce 8f 3d f6 d9 62 bd 47 5e a2 3c 54 d6 1c bd
       0.07021863 -0.055383645 0.019820346 -0.038290337
000300 aa 7a 1b be 1b 91 b6 3c f3 89 c7 bd e5 2c f7 bc
       -0.15183511 0.022285989 -0.097431086 -0.030172775
000310 69 72 3c 3d ad 0f 3f 3d 19 94 32 3e 3d ae 9a 3b
       0.046007548 0.04664581 0.17439307 0.004720478
000320 db 8e b1 be 4c e0 88 3d c4 87 fa 3c 51 4e 08 bc
       -0.34679303 0.06683406 0.030582316 -0.008319453
000330 5a f1 8e bd b0 ea d9 bb bd a2 0c bc a6 db 75 bb
       -0.06979628 -0.0066502914 -0.008583722 -0.0037514954
000340 7e d0 60 3d c8 5a f9 3d 6f b8 ca bd 81 34 d1 3a
       0.054886334 0.12175518 -0.09898459 0.0015961082
000350 43 81 aa 3d f6 70 09 3d 0a 7a 6e 3c 39 84 09 3c
       0.08325436 0.033554994 0.014555464 0.008393341
000360 77 fe 1f 3d c8 f9 33 3d 43 e2 25 3a f6 7a 3d 3d
       0.039061036 0.04393938 0.0006327966 0.046259843
000370 95 f0 e7 3d cc 0d d0 3c d4 d8 b6 3d 9e 9b 5f 3d
       0.11325184 0.025397204 0.089280754 0.054591767
000380 5d 33 bd bc 4d 7a 05 be 03 8a 9a 3d ef 7f d1 bd
       -0.023095781 -0.13034935 0.07545855 -0.102294795
000390 8f 83 68 3d e4 8b a9 bd ba 60 8d bd 39 7d e4 bd
       0.05676609 -0.08278635 -0.06903215 -0.11156697
0003a0 2f 61 82 bd 48 75 8e 3d 71 97 23 bd 47 86 5c bd
       -0.063661925 0.069559634 -0.039939348 -0.053838994
0003b0 85 dc 1f bc ab 5f 89 3b 91 d1 89 3d 3c 9a e2 3d
       -0.009757166 0.0041923127 0.06729425 0.11064574
0003c0 e7 5f 50 3c a6 75 fa 3c bd ce e8 3b a2 f8 30 bd
       0.012718177 0.030573677 0.0071047232 -0.043205865
0003d0 32 98 e7 3c cc 31 88 bc b4 5d 8e bd bc 98 27 3e
       0.028270815 -0.016625308 -0.06951466 0.16366857
0003e0 a3 e8 ab 3a e6 2a 0e 3e 17 89 8f bc 3f d5 e4 bc
       0.0013115596 0.13883552 -0.017521424 -0.027933715
0003f0 84 47 a9 3d 0f d4 f7 bd ae 95 99 bb 72 10 9d bd
       0.08265594 -0.12100994 -0.0046870327 -0.07669152

2.bias f4 [100]
000000 25 d6 a6 3d 1b 49 c7 bd 57 66 b5 bd 52 14 09 3c
       0.081463136 -0.09730741 -0.088574104 0.008366661
000010 f7 e6 69 3d d2 79 44 bd ae a9 8b 3d a4 be 42 be
       0.05710503 -0.04796774 0.06819473 -0.19018036
000020 78 45 8c 3d 85 fd 85 bd 85 22 40 bd ed d6 46 bc
       0.068491876 -0.06542496 -0.04690792 -0.012136203
000030 25 d1 aa bc 3a 49 37 3d 96 d7 30 bb 6d 3d 0d bc
       -0.020851681 0.04474757 -0.0026983968 -0.008620602
000040 27 ff bd 3d 95 9a 39 bd dd 6d 18 3e 71 82 07 3e
       0.09277182 -0.045313437 0.1488566 0.13233353
000050 9b d9 35 3d 75 43 ff 3c 59 d3 a3 bc e1 0f 02 3b
       0.044396978 0.031160096 -0.01999824 0.001984589
000060 4e 0a 0b bd 01 da 2f bd c7 55 4f bd 48 60 1a 3b
       -0.033945374 -0.042932514 -0.050618913 0.0023555923
000070 f6 5a 5e bd e6 2e f4 3d f0 cd c4 bd 09 05 c5 3d
       -0.054285966 0.11923008 -0.09609592 0.09620101
000080 86 26 ef 3d aa c1 cc 3d 13 4d bb 3c 87 c5 71 3d
       0.1167727 0.09997876 0.0228639 0.059026267
000090 d1 18 ad bd 94 85 3b 3d a6 84 18 3c 98 2e 27 bd
       -0.08451999 0.045781687 0.00930897 -0.04081592
0000a0 23 4b 55 bd c8 fc 3a 3d 82 cf ae 3b 9e d6 a4 bd
       -0.05207361 0.045651227 0.0053347955 -0.080487475
0000b0 f3 d7 e9 3a d5 9c c3 bc 10 b9 32 3d 57 cb d0 bc
       0.0017840847 -0.023878494 0.04363352 -0.025487585
0000c0 fc e8 9b bd d9 4c 9e bd 3e 12 1d bd b2 39 91 bc
       -0.076127976 -0.07729501 -0.038347475 -0.017727707
0000d0 1d a8 02 3b 4c 00 9c 3c 0e 48 4e bc 74 59 a2 bd
       0.001993663 0.01904311 -0.012590421 -0.07927218
0000e0 a9 80 8d 3d 80 e1 a5 3d d8 2a 68 bd 16 78 2f ba
       0.069093056 0.08099651 -0.056681484 -0.00066936144
0000f0 e7 a2 85 3d 20 5b ba 3d 45 77 89 bc c6 5f c5 3d
       0.06525212 0.09099412 -0.016780505 0.09637408
000100 8b 8f 2e 3c 95 1f f6 bd 5b 70 a6 3c 79 8a c2 3d
       0.0106543405 -0.120177425 0.020317247 0.09499068
000110 79 5c 34 bd ee fe 4f be 8c 1c 74 3d a4 da 30 bd
       -0.0440335 -0.20312092 0.059597537 -0.043177262
000120 3b db 09 bd 33 ca e3 bd 8c 74 de 3d 10 7b 84 3c
       -0.03365634 -0.11122551 0.10862073 0.016171962
000130 37 55 c5 3c 51 40 eb 3b 84 68 7b ba 0b 38 9b 3d
       0.024088485 0.007179298 -0.0009590464 0.07579049
000140 6f 53 ce 3c 13 49 05 3e 42 14 8d 3d ea 39 44 bd
       0.025186269 0.13016157 0.068886295 -0.047906794
000150 93 56 9b bd 0b 19 94 bd 48 4e 0a bc e9 8e 28 3d
       -0.07584872 -0.07231339 -0.008441515 0.041151915
000160 d5 9d cd 3d 4a d3 1e bd de 36 9c 3d 88 c6 a1 bc
       0.1003987 -0.03877572 0.076276526 -0.019747987
000170 be 10 4a bd df 2c 48 3d c4 c0 8f 3d 1c a8 d5 bd
       -0.049332373 0.048870917 0.07019189 -0.10432455
000180 c7 e1 b9 3d 3d fe ba 3c e0 03 c8 3d 02 35 28 bd
       0.09076267 0.022826308 0.09766364 -0.041066177

3.log_std f4 [100]
000000 50 2b 86 bd be ba 5e bd 7f 94 1d bd b5 db 44 bd
       -0.0655123 -0.05437731 -0.038471695 -0.04806109
000010 ae aa 07 bd ce 80 c6 bd cc d7 54 bc 17 10 97 bd
       -0.033121757 -0.09692536 -0.012990903 -0.07376116
000020 dc 8e 1d bd 84 99 03 bd 56 cc 32 be 73 3d fb bc
       -0.03846632 -0.032128826 -0.1746076 -0.03066895
000030 b2 d3 65 bd ce b5 9b bc cc 6f d0 bc 6f ca c1 bc
       -0.05611009 -0.01900759 -0.025443934 -0.023656098
000040 a5 9f 86 bd cd 2f 11 bf 64 31 b2 be 64 3a a0 bf
       -0.065734185 -0.56713563 -0.34803307 -1.251782
000050 cd d3 13 bb e1 15 5a bd 7e 6a 34 bd 9a 11 0a bd
       -0.0022556663 -0.05324352 -0.04404687 -0.033708192
000060 2f 66 dd bd af cd 65 be 53 88 3d be 08 4e 04 bd
       -0.108105056 -0.22441743 -0.18509035 -0.03230098
000070 e7 d7 04 bd 94 e6 21 be 09 a6 d7 bd 53 40 10 bf
       -0.032432463 -0.15810615 -0.105297156 -0.5634815
000080 07 45 01 bd 09 7f 34 bd 5c 8f cb be 85 2c de be
       -0.03155997 -0.044066463 -0.39757812 -0.4339334
000090 25 4f 9f bc 23 f7 1d bc 9a b1 9a bc 43 11 f1 bd
       -0.019446919 -0.0096414415 -0.018883515 -0.117708705
0000a0 4b 9b 03 be 78 6a 14 bd 42 c4 a2 bb dc 12 41 bd
       -0.12852208 -0.03623435 -0.0049672434 -0.047137126
0000b0 76 73 42 bc 43 bc 13 bd be ec e3 bc 4b 76 84 be
       -0.011868348 -0.036068212 -0.027822848 -0.258715
0000c0 6b 95 b0 bc d1 bf 9f bf 5d 7d 54 bc 33 d2 b0 bd
       -0.021555623 -1.2480413 -0.012969342 -0.08633842
0000d0 ca 51 e9 bc ee 5e c8 bc 18 5b 6d bd 0b 8f 5f bd
       -0.028481383 -0.024459329 -0.057948202 -0.054579776
0000e0 fd 63 05 bd c9 67 67 bd cd ad 76 bc a1 6d a8 bd
       -0.03256606 -0.05649546 -0.015056086 -0.08224035
0000f0 ab 40 c5 bc 3c bc c7 bc e7 fb 0c bf 0e 53 18 bd
       -0.024078688 -0.02438175 -0.5507187 -0.037188582
000100 08 6a 02 be 10 a2 4d bd 3e 89 cd bb f2 ba 4e be
       -0.1273576 -0.050203383 -0.006272464 -0.20188501
000110 e4 0d 11 bc 3a 32 93 bd 66 a6 c5 bd f7 ef da be
       -0.008853409 -0.07187314 -0.096508786 -0.42761204
000120 85 d3 36 bc 12 f4 0c bd 61 ca a9 bc 73 df 47 bc
       -0.011158829 -0.03441245 -0.020726385 -0.012199271
000130 df b8 d1 bc 4e 69 7e bd dd f6 06 be 8a 55 03 be
       -0.025600849 -0.062112145 -0.13180108 -0.128256
000140 7f 22 93 bc 36 45 48 bd 0d 36 de bc ce 39 4f bf
       -0.017960785 -0.04889413 -0.027125383 -0.8094758
000150 26 b0 07 bd c0 b6 07 be 8f 78 aa bc 09 22 02 bf
       -0.033126973 -0.13253307 -0.02080944 -0.50833184
000160 16 ed b7 bd 14 68 45 bd 77 e2 f4 bc 82 41 51 be
       -0.089807674 -0.04819496 -0.029893143 -0.20435145
000170 8c 9e e3 bb 08 91 79 bd 57 90 0e bd 2c 65 89 be
       -0.0069463905 -0.06092933 -0.034805622 -0.26835
000180 d1 fc 45 bd c6 2e b6 3a 3d 1b d4 bd e7 54 fc bc
       -0.048336808 0.0013899438 -0.10356758 -0.030802203

0.weight f4 [64, 501]
000000 65 e9 7a b9 fb 09 e1 3b 18 af 4a 3b bb 70 39 3a
       -0.00023928804 0.006867645 0.0030927118 0.0007073988
000010 66 2d 44 b9 c8 7d 7c bb db a0 14 bb e7 83 e1 3a
       -0.00018708929 -0.003852712 -0.0022678885 0.0017205448
000020 ea ae dc bb 4f 48 d7 ba 07 c6 08 b9 62 9b 03 ba
       -0.0067347186 -0.0016424748 -0.00013043742 -0.0005020407
000030 b7 e2 01 bb ab ca bf ba 35 c2 52 3b 01 0b 40 bb
       -0.001981897 -0.0014632543 0.0032159213 -0.0029303434
000040 76 98 94 3a 24 98 6a b9 87 d2 cc ba 42 6b 65 3a
       0.0011336941 -0.00022372656 -0.0015626707 0.00087516394
000050 01 c0 d2 b8 23 06 63 bb fe 73 87 39 bf b8 06 bb
       -0.00010049344 -0.003464111 0.00025835627 -0.0020556895
000060 25 9e 78 3b d6 71 9d b9 bc 70 6b ba ec 13 14 ba
       0.0037936058 -0.00030030188 -0.00089813373 -0.00056487205
000070 f1 f1 cf b9 80 75 1b bb 81 ae 36 3a e5 01 c9 ba
       -0.00039662377 -0.0023721159 0.0006968752 -0.0015335648
000080 0c 6a 51 3a 54 42 40 bb 77 14 32 bb d8 ba 88 bb
       0.00079885195 -0.002933641 -0.0027172843 -0.004172664
000090 9a c1 06 ba 96 07 4b 3a 7b 9b 41 3b 67 5d 11 37
       -0.0005140543 0.0007744966 0.0029542136 8.66442e-06
0000a0 b8 93 87 bb 27 bd 66 3a 15 34 80 3b b8 fc 4d 39
       -0.0041374825 0.00088019896 0.0039124587 0.00019644469
0000b0 e8 6e 37 ba f3 50 1b 3b 85 ef 81 3a 2a c7 1f 38
       -0.00069974223 0.0023699373 0.0009913301 3.809404e-05
0000c0 9e 8c 37 bb bb 70 ba 39 71 51 44 3a 4f 9d 71 3a
       -0.0028007398 0.00035560675 0.00074889424 0.0009216861
0000d0 ea 9e 19 3a d5 7a 29 bb 9e 76 a0 3b b6 61 02 bb
       0.0005860167 -0.0025860567 0.004896953 -0.0019894666
0000e0 bf 3e 18 bb e5 f4 ee ba 8a e0 62 39 39 5d 01 b9
       -0.002323076 -0.0018230943 0.00021636687 -0.00012337127
0000f0 7c 66 b9 38 d5 2f 16 bb 4b 71 53 3a 39 de e5 ba
       8.8405766e-05 -0.0022916694 0.0008065893 -0.0017537541
000100 ec d3 ef 39 45 d3 ad 3a fc f4 65 3a ba 93 71 bb
       0.00045743526 0.0013261816 0.0008772162 -0.0036861734
000110 65 84 aa b8 9d 00 04 ba f5 63 59 bb 09 1e 19 3a
       -8.130892e-05 -0.0005035492 -0.0033171151 0.00058409624
000120 19 f5 2d 3a b7 01 2f ba dc 69 4f bb 3a d2 90 3a
       0.00066359487 -0.0006675976 -0.003164879 0.001104898
000130 d2 ee 1a 3a fd f9 5b 3a ec 83 20 bb 4d 9e 41 bb
       0.0005910221 0.0008391438 -0.0024492694 -0.0029543818
000140 35 2d fb 39 0e c7 75 3a 32 62 51 3b b8 9f 7c 39
       0.00047908133 0.000937567 0.0031949398 0.00024092093
000150 8a 99 ca 3a 5d 72 29 bb ce ed 4f 3a 9c 0a 88 3a
       0.0015457135 -0.002585552 0.0007931859 0.0010379138
000160 ed dd 13 39 da f9 2b 3b f8 e3 07 bb eb 5c ee b9
       0.00014101686 0.0026241452 -0.0020735245 -0.00045464127
000170 85 62 a0 b9 78 93 a0 ba 47 92 3d 3a 05 7e 9a ba
       -0.0003059098 -0.001225098 0.0007231575 -0.0011786824
000180 6f e0 b0 3a 42 2a cf ba 32 11 a1 3a bd f6 9e 3b
       0.0013494621 -0.001580544 0.001228845 0.004851191
000190 c2 54 05 ba a9 31 e7 39 71 84 28 3a 83 b7 4a b9
       -0.0005086177 0.00044096753 0.0006428427 -0.00019332585
0001a0 26 75 08 b9 85 e6 53 3b 86 bc d0 3a 0d 45 10 3a
       -0.00013013612 0.0032333445 0.0015925325 0.00055034534
0001b0 75 5a 81 b9 21 91 48 3a 68 11 bd 3a 03 13 0c 3b
       -0.00024672193 0.00076510204 0.0014424743 0.0021373637
0001c0 c7 31 90 3a 92 29 85 3a a6 e1 c9 3b 4f 4b f3 ba
       0.0011001163 0.0010159484 0.0061609326 -0.0018561872
0001d0 b3 5b 35 bb 57 0e 83 b9 35 e2 e6 3a 42 a9 e0 ba
       -0.0027673065 -0.0002499695 0.0017615022 -0.0017140287
0001e0 a1 25 5e 3a 07 82 22 bb d5 3f f8 b9 be af 8f b9
       0.0008474235 -0.002479674 -0.00047349805 -0.00027406024
0001f0 b1 b0 55 bb dd d8 90 bb 0f 1d 81 bb 7b 78 20 3b
       -0.0032606537 -0.0044203834 -0.0039402316 0.0024485874
000200 06 aa d1 b9 94 f5 29 3b ba 9d ca ba e7 1f 64 3b
       -0.00039990264 0.002593373 -0.0015458383 0.0034809054
000210 be 76 2c bb 2e 6d 0d 3b 91 f4 5b ba 80 89 2c bb
       -0.0026315893 0.0021579969 -0.000839063 -0.0026327074
000220 b5 8b 0c bb 0b 06 18 3a 1a e8 41 ba e3 b5 e2 b9
       -0.0021445577 0.00057992403 -0.00073969516 -0.00043241595
000230 75 d5 c8 bb 43 cd c8 ba 89 63 16 3b 50 34 a7 ba
       -0.0061289617 -0.0015319962 0.0022947511 -0.0012756679
000240 85 c5 2a 3a 64 dc 4c bb 67 fa e3 b9 f9 29 89 bb
       0.0006514418 -0.0031259293 -0.00043483378 -0.0041859117
000250 66 e0 51 bb 1a 6a 22 3a db f4 7f 3a 3a 0b ba 3b
       -0.003202462 0.000619562 0.00097639643 0.005677608
000260 7a 3c 33 39 47 4c 2d ba f3 99 2b 3b 64 b6 41 bb
       0.000170933 -0.00066107925 0.002618429 -0.0029558176
000270 a9 9b a5 3b dc 18 c2 ba 4a 75 88 36 26 fb 9c ba
       0.0050539565 -0.0014808434 4.06677e-06 -0.0011976704
000280 4d 3c 81 3a f0 c1 c2 ba 96 ca e3 ba 3e b9 ac 3a
       0.000985989 -0.0014858823 -0.0017379101 0.0013177765
000290 bc f3 6a ba bb 9c 00 ba 0f a3 21 ba d3 88 87 3a
       -0.0008962711 -0.0004906167 -0.000616596 0.0010340459
0002a0 4b 9b 58 3b b1 7b 13 ba cc 26 9a ba 40 f5 3e 3b
       0.0033051546 -0.00056260364 -0.001176083 0.002913788
0002b0 5c cc 80 b9 40 9c 00 bb b5 17 32 3a 3f a0 6d 3a
       -0.00024566322 -0.0019624382 0.0006793694 0.0009064711
0002c0 28 f5 4e 3b 1d bf ce ba 9e 02 28 bb 3b 9d 03 3b
       0.003157923 -0.0015773509 -0.0025636326 0.002008273
0002d0 0a 94 c8 39 be fb 0f 3b d6 55 fb b8 e6 ab cc 38
       0.0003825727 0.0021970118 -0.00011984601 9.7594966e-05
0002e0 2f 3e 99 b9 da 83 68 bb a4 c0 cb ba 65 8c 95 ba
       -0.00029228764 -0.003547898 -0.0015545082 -0.0011409639
0002f0 90 4e 8d 3b a4 21 45 ba 22 34 c6 3a 9f 0c 24 39
       0.004312344 -0.00075199665 0.0015121738 0.0001564496
000300 4c 6a 0a bb 2f 81 55 3b 48 38 4e bb e4 b0 d2 ba
       -0.0021120487 0.003257822 -0.0031466652 -0.0016074446
000310 da 35 28 ba c6 41 e1 ba 1b 0c 5b 3b 27 1f 43 3b
       -0.0006416716 -0.001718574 0.0033423963 0.0029773207
000320 14 ae 92 3b 79 c4 75 bb 2f 2e 84 b8 5c 4a 7e 3b
       0.004476318 -0.003750114 -6.302853e-05 0.0038801646
000330 d0 0a c3 b8 1c 81 90 38 31 89 3e ba e4 a6 33 b9
       -9.3003386e-05 6.8905036e-05 -0.0007268368 -0.00017132942
000340 72 ee a8 3b 80 98 86 b9 38 68 4c 3b 9b 6f 39 bb
       0.005155378 -0.00025672093 0.003119005 -0.0028295282
000350 bb c9 af 3a 5c fb 28 3b d3 42 af 3a 95 2e cb b9
       0.0013411561 0.0025784587 0.0013371356 -0.00038753884
000360 a4 c4 d5 3a a0 0f 02 b9 d1 f2 56 bb 56 81 5a ba
       0.0016309214 -0.00012403587 -0.0032798538 -0.00083353126
000370 4c 00 2b 3b 22 29 f0 ba 69 f0 af 3a ea af b7 3a
       0.0026092706 -0.0018322805 0.0013423088 0.0014014218
000380 19 a0 c7 ba 5f 1d f7 ba b5 bd 34 3a 0e b4 fd b9
       -0.0015230208 -0.0018853358 0.00068947236 -0.00048390072
000390 09 42 84 3b af 94 77 3b 00 3a ef 38 41 02 09 3a
       0.0040361923 0.0037777831 0.000114072114 0.0005226471
0003a0 54 d8 15 3b 28 ce 1b 3a 54 0b ce 3a 20 35 0a bb
       0.0022864537 0.00059435004 0.0015719929 -0.0021088794
0003b0 3b 38 38 bb 82 b8 49 bb b9 72 8b 3a 14 6e 56 b9
       -0.0028109688 -0.0030780141 0.0010639048 -0.00020449638
0003c0 68 1e 84 bb b2 28 d4 3a e3 bc a8 ba 66 25 3e 3b
       -0.004031945 0.0016186445 -0.0012873675 0.002901399
0003d0 9f dd f7 38 ef 1a 9c ba dd 05 dc ba 9f ff a5 bb
       0.00011819158 -0.0011909882 -0.0016786415 -0.005065873
0003e0 d0 d2 c2 ba 7e e7 68 3b 99 6a 00 ba 10 c0 ea 3a
       -0.0014863852 0.003553837 -0.0004898697 0.0017910022
0003f0 8b 35 a9 bb 51 e6 78 ba 80 ce ab ba 92 3c 1e 3b
       -0.0051638535 -0.0009494769 -0.0013107806 0.002414499

0.bias f4 [64]
000000 12 35 93 3c fb 53 ab bc 6d b2 03 bd ff 4e 9a 3a
       0.017969642 -0.020914068 -0.032152582 0.001177281
000010 d3 5e dd bb 7a ab 71 bc 7b 98 64 bd 85 66 87 ba
       -0.0067556887 -0.014750356 -0.05580948 -0.0010330236
000020 c4 ec 60 bb 7d 8e bd ba 82 93 3d 3d f0 51 f2 3c
       -0.003432081 -0.001446202 0.046283253 0.029580086
000030 e0 88 33 bd e1 9c 62 bd 5e 14 2f bd 49 7a 0d 3c
       -0.043831706 -0.055325393 -0.042744033 0.008635112
000040 5b 59 19 3d 71 75 35 3b f0 e2 45 bc f8 5d 0e bc
       0.03743873 0.0027688409 -0.012078032 -0.008689396
000050 0d ad bd bc 36 b1 34 3d be fb 66 bd f7 ef 3f bd
       -0.023153806 0.044114314 -0.056392424 -0.046859708
000060 46 34 eb bc 78 ee 97 3c d9 29 94 3d e5 98 16 3d
       -0.02871145 0.018546328 0.07234544 0.036766905
000070 69 a2 28 3d 98 d0 58 bd e1 6e 3a bd 88 d2 2c bd
       0.04117051 -0.052933306 -0.0455159 -0.042192966
000080 8e 1e 28 3d ad 02 0c be 44 09 21 3d 38 81 a0 3d
       0.041044764 -0.13672896 0.039315477 0.078371465
000090 bb 5d 53 3d e8 1f 09 bd 30 17 55 bd 01 22 75 3d
       0.05160306 -0.033477694 -0.052024066 0.05984688
0000a0 72 2a 2d bd 1e 4c 07 bd 3c e4 71 bd 8e f9 cc 3c
       -0.042276807 -0.033031575 -0.059055552 0.02502134
0000b0 32 ae d0 bb ae 0e b0 3d f6 ef ab ba b8 12 4e bd
       -0.006368422 0.0859655 -0.0013117779 -0.05031082
0000c0 3f 5c 45 bd fa 0e 94 3d 60 23 f0 3c 39 43 86 bd
       -0.048183676 0.07229419 0.029313743 -0.065557905
0000d0 62 3a 31 3d 5c e9 e2 3c 8f 8a 21 bb 38 1f 65 3d
       0.04326857 0.027699165 -0.0024649238 0.055937976
0000e0 86 5b 23 3d d1 b4 80 bd 32 ae f0 3c d5 b1 ac bd
       0.039882205 -0.06284488 0.029379938 -0.08432356
0000f0 08 74 93 3d 56 15 7c 3d db ef 8e bd e4 30 1e bd
       0.071998656 0.061543785 -0.069793426 -0.038620844

2.weight f4 [1, 64]
000000 91 dd a6 3b 9f fc 27 be 65 2b 39 be 9b d2 83 3d
       0.0050923307 -0.16404961 -0.1808296 0.06436654
000010 6e db 5d bd c7 d5 fa bc 8a 5f a9 bd be 07 8c bd
       -0.054164343 -0.030619515 -0.08270176 -0.06837414
000020 52 0e ef bd a5 fc 12 3c 1b 6a 4e 3d 5a bb 92 3d
       -0.11672653 0.008971368 0.05039416 0.07164641
000030 8d f2 bf bd 10 cd 35 be 9c 57 38 bd 0a ee 36 3e
       -0.09372435 -0.17754006 -0.045005426 0.17864242
000040 24 d8 6e 3c 30 20 3e bc 0d 4a 31 bd b9 d4 40 bd
       0.014577899 -0.011604354 -0.04328351 -0.047077868
000050 4a 64 46 bb a0 70 64 3e 21 b8 48 be b7 82 89 be
       -0.003027218 0.22308588 -0.1960149 -0.2685754
000060 a0 0c 18 be f5 62 47 3e be c8 7b 3e 04 8d 17 3e
       -0.14848566 0.19471343 0.24588296 0.14799887
000070 98 dc c3 3d e3 b5 0c be f3 ae 80 bd fd b6 c4 bd
       0.09563559 -0.1374126 -0.06283369 -0.09605215
000080 09 7d d9 3d 16 2e 58 3f 5d 73 88 3e 5d 38 bc 3e
       0.10619552 0.8444532 0.26650515 0.36761752
000090 81 e7 ad 3d e3 54 78 bd f1 92 39 be ab 21 13 3e
       0.084914215 -0.06062783 -0.1812246 0.14368312
0000a0 70 c1 c3 bc 13 e4 05 be 76 aa 98 bd ee 11 6e 3d
       -0.02389595 -0.13075285 -0.07454388 0.058122568
0000b0 7f 95 f9 bc 12 83 91 3e e2 0a 0d 3d 99 12 44 be
       -0.030466793 0.2842031 0.034434207 -0.1914772
0000c0 b9 5b 3a be 3f 5d 4a 3e 26 d5 ab 3d 93 c4 3e be
       -0.18199052 0.19762133 0.08390264 -0.18629675
0000d0 14 ee 70 3e 79 6c 02 3e 10 4b ed 3c 25 7e 6c 3e
       0.2352832 0.12736692 0.028966457 0.23094995
0000e0 7f 2c 95 3d 7b 6d 13 bd a3 f3 4e 3e fb 52 2c be
       0.072838776 -0.03599308 0.20210128 -0.1682853
0000f0 06 a9 cd 3e 24 5b a4 3e 1a 40 83 be 95 95 0c be
       0.40168017 0.32100785 -0.25634843 -0.13728936

0.weight f4 [64, 501]
000000 69 b2 74 3c 4b 41 f3 bb 5c 8a d1 bc 21 4c 82 ba
       0.014935114 -0.007423555 -0.02557867 -0.0009940901
000010 2d fc bd 3b fd 09 3e 3c 47 5e 80 bb a9 13 48 bc
       0.005797884 0.011599061 -0.0039174887 -0.012211719
000020 c2 dc 1f ba 93 b7 0a bc 17 46 a1 bb 8d 97 6d 3c
       -0.0006098264 -0.008466619 -0.0049216854 0.014501465
000030 cd 12 ed 3a ac c7 21 3c ef b5 83 bb e6 68 59 ba
       0.0018087268 0.009874266 -0.004019491 -0.0008293524
000040 d9 84 1c bb 6c 73 40 3c ce b3 a5 3c 4c 0f 76 3a
       -0.0023882894 0.011746269 0.02022734 0.00093864347
000050 5d 12 49 bc f6 de a6 ba 61 55 a3 3b 03 a0 8f bb
       -0.012272445 -0.0012731242 0.004984543 -0.0043830886
000060 f0 dd 27 3a 6c 72 15 3c 3a 27 dc 3c 7a a4 64 bc
       0.00064036157 0.009121519 0.026874173 -0.01395523
000070 6d 62 23 bc b5 44 c6 bb a3 9d 06 bc 64 c2 8f 3b
       -0.009972197 -0.006050671 -0.008216294 0.004387187
000080 8c 99 0e 3c b9 61 73 bc 40 b9 af 38 49 6e a6 3c
       0.008703601 -0.014854842 8.379156e-05 0.02031626
000090 4d b2 3e 39 d9 dd 8b 3b c1 8a 02 bb 6d 7d 6d bb
       0.00018186234 0.0042683897 -0.001991913 -0.003623809
0000a0 6a 9b 1c 3c 49 d5 c8 3b d9 32 ba 3b 98 ed 0d 3c
       0.009558538 0.006128941 0.005682331 0.008662604
0000b0 73 91 c5 3a 45 fc 50 ba 4a 77 8e bc c7 bd 1f 3b
       0.0015073254 -0.00079721614 -0.017390866 0.002437459
0000c0 b6 9e 1c 3c bd 47 53 3c a2 be 92 bb 87 34 a2 bc
       0.009559324 0.012895522 -0.0044782916 -0.019800438
0000d0 3f 0f d0 bc 87 9f cf 3b 8e be cc 3b 2f 85 06 bb
       -0.025397895 0.006336156 0.006248302 -0.002052616
0000e0 4f c8 0f bc b6 45 dc 3b 09 59 0e bc ce 89 84 bb
       -0.008775785 0.0067221774 -0.00868822 -0.004044748
0000f0 c0 47 b9 3b 88 73 4a 3c 32 3c 43 3c a3 84 9d bc
       0.005654305 0.012356646 0.011916207 -0.019228285
000100 25 66 33 3a 38 e3 db bb 3a 74 d4 3b 7a 96 cf 3b
       0.0006843529 -0.006710436 0.006483582 0.006335077
000110 3b 4f ec bb 09 ae 37 bc 15 c0 53 3c 96 62 09 3b
       -0.0072115934 -0.011210927 0.012924214 0.0020963303
000120 e7 3c 84 bc 71 18 e1 3a 5c 80 a8 39 db 51 fa bb
       -0.016142322 0.0017173422 0.00032139092 -0.0076391525
000130 e0 19 58 3a de 70 cd bb fc bc 84 3b 7f e0 1c bc
       0.0008243602 -0.0062695583 0.004050849 -0.009575008
000140 fb bb 70 3b c9 25 3b bb b0 3c d3 bb 1f ad 07 3b
       0.003673314 -0.0028556457 -0.0064464435 0.0020702553
000150 4a bc 4d 3b 30 32 4d bb ec 7f 5d 3c d3 7b 52 bc
       0.0031392747 -0.0031310432 0.0135192685 -0.012846905
000160 23 96 b0 bb dc 05 25 3c cf 49 0e bb cd 08 1e bc
       -0.0053889914 0.010072198 -0.0021711474 -0.009645653
000170 a2 fc 75 bb f7 98 ff 3b ad 76 c1 bb aa 71 53 bc
       -0.0037534614 0.0078002173 -0.00590404 -0.012905518
000180 38 35 9a 3a e0 88 68 bc a7 ea 88 bc 8d fe 80 3c
       0.0011765128 -0.01419279 -0.016713453 0.01574638
000190 a6 9f 43 3b db b8 b8 3b 06 1e f3 ba e8 58 30 bb
       0.0029849797 0.005637271 -0.0018548376 -0.002690846
0001a0 7c 07 c6 3b 17 7f 0c bc 29 c3 b5 bb 4e ec 7f 3c
       0.0060433727 -0.008575222 -0.0055469465 0.015620304
0001b0 57 3d fb bb 49 2f 4e bc 54 2a 5b 3b 42 26 f0 3a
       -0.0076672244 -0.012584516 0.0033441978 0.0018321949
0001c0 47 e7 85 bb 98 1a a2 3c cf 33 a9 bb 21 a1 eb 3b
       -0.0040864083 0.019788072 -0.005163647 0.007190839
0001d0 fd 46 11 3c e7 6c 23 bc fe 38 2f bc 26 23 34 bc
       0.008867023 -0.009974695 -0.01069474 -0.010994708
0001e0 58 a7 83 bb ff 1e ad 3a 2a af 5a bb e8 d1 46 3c
       -0.0040177517 0.001320809 -0.0033368566 0.0121350065
0001f0 b6 fe bf 39 cb e8 7a 3c f6 ab 16 bc e4 a3 b3 3b
       0.00036620133 0.015314291 -0.009196272 0.005482184
000200 07 ac 10 3b bc 2e 3d bc 9b 0f 52 3a b4 45 22 bc
       0.0022075193 -0.011546787 0.00080131897 -0.009904314
000210 0f e2 94 bb cf e5 d0 3b d9 c8 4f 3b bf 46 bc bb
       -0.00454355 0.0063750516 0.0031705408 -0.0057457383
000220 f9 ee 0b bb a4 e5 1a bc 96 a8 df bb ac 0f 21 bb
       -0.0021352156 -0.009454165 -0.006825517 -0.0024575992
000230 93 28 65 3c f1 bf 6c 3c 4e e7 1d bc 01 c4 26 3b
       0.013986724 0.014450059 -0.009637667 0.0025446417
000240 51 82 7b bb d7 14 de 3c eb 5f f1 3b d1 d5 f9 bb
       -0.0038377235 0.027109547 0.0073661706 -0.007624366
000250 55 57 eb bb fe 88 8f 3c b0 53 7b bc 32 22 0b 3b
       -0.0071820416 0.017521378 -0.015339777 0.0021230099
000260 85 60 4c 3b 87 79 cd bb ad af cc 3a ff 7c 87 3b
       0.003118546 -0.0062705907 0.001561632 0.0041347737
000270 71 e4 c1 bc 04 e3 6b bc 77 5c 26 3c 2c f4 aa bb
       -0.0236685 -0.014397386 0.010153881 -0.005217096
000280 95 b8 90 3b 0e 13 7c 3c 99 c4 af b7 43 ab e8 bb
       0.004416535 0.015385402 -2.0953174e-05 -0.007100494
000290 d5 60 52 bc 9c 10 2e 3c 48 6a 09 bc 5b 9b 59 3b
       -0.012840469 0.010624077 -0.008387156 0.0033204171
0002a0 b7 b4 de ba aa 26 5a 3b d5 5e f9 bb 99 f1 f4 bb
       -0.0016991113 0.0033287206 -0.007610182 -0.0074750897
0002b0 9b 0c 7c 3b b0 45 a1 bb 8c 92 b8 ba 18 c5 2e bc
       0.0038459662 -0.0049216375 -0.001408176 -0.010667108
0002c0 89 c3 21 bb 54 0c b2 3c e3 cc 11 3a c9 5e 72 bc
       -0.0024683198 0.021734394 0.00055618415 -0.014793106
0002d0 10 4e 74 bc 66 6a 3d ba 79 ae 42 bc 04 f9 93 bb
       -0.01491119 -0.00072256324 -0.011882418 -0.004515769
0002e0 49 98 0b 3c fd 33 58 3b b9 68 45 3c 79 41 87 39
       0.008520194 0.0032989972 0.012048894 0.00025797987
0002f0 bc 3e 55 bc 49 85 55 3c 37 11 34 bc 8b 6b 76 bb
       -0.013015445 0.013032266 -0.010990432 -0.0037600722
000300 74 90 85 bb 89 61 06 39 58 f8 80 bb 84 c8 68 3b
       -0.004076058 0.0001281557 -0.003935855 0.0035519907
000310 5f c8 0a bc 85 77 48 3c 2f 2c 9a bb df 12 b2 3b
       -0.008470624 0.012235527 -0.004704974 0.0054343785
000320 81 ac 18 bc 80 e9 0d bc 36 f3 ef 3b 91 1a e4 b9
       -0.009318472 -0.008661628 0.007322694 -0.00043507342
000330 0b 22 4b 3c 50 a6 4d 3c ce 55 ea 3b b8 83 f8 bb
       0.012398253 0.012551859 0.007151342 -0.0075840615
000340 ec b4 b9 3b 9f 63 40 3a 9f f7 1e 3a 0d dd 56 3a
       0.0056673195 0.00073390634 0.000606412 0.0008196391
000350 9b 19 5a 3b d9 2f 35 bc 42 ab 94 3c 9a 62 0a bb
       0.0033279422 -0.011058771 0.018148068 -0.00211159
000360 7a 88 a9 bb 10 88 f8 bb ee 55 88 3b 6c 2e 23 bc
       -0.00517374 -0.0075845793 0.0041606342 -0.009959798
000370 09 86 55 3c 14 4f ef 3a 69 a1 76 bb e9 a9 61 3b
       0.013032445 0.001825782 -0.003763283 0.003443355
000380 21 c5 47 3b 8e 27 2b 3c 33 64 2b bc 6e 87 8d ba
       0.0030482488 0.010446442 -0.010460901 -0.0010797807
000390 4f 46 91 bb 1d 72 9a bc 4c ce ae bb eb 0c a0 3c
       -0.0044334303 -0.018853242 -0.005334651 0.01953741
0003a0 ea 7d 02 ba 84 c3 cc 3b 98 6d 05 ba 43 14 44 3c
       -0.0004977869 0.006248893 -0.0005089878 0.011967721
0003b0 b1 cb 98 3b 5d 4f 6f bb 67 5c 35 bc 7b b8 d6 bb
       0.004662954 -0.003651581 -0.011069394 -0.0065527535
0003c0 4d df ce 3b 22 bb 2b 3b 62 38 69 3c 7a 43 39 bc
       0.0063132406 0.002620407 0.014234634 -0.011307592
0003d0 71 26 b3 3a 59 b2 50 3a 4e 84 3a 3c ba 71 1b 3b
       0.0013668073 0.0007961146 0.011384083 0.002371891
0003e0 60 db 06 3c 6e 9c 87 bc e9 fe 07 b9 47 56 04 3a
       0.008231014 -0.016554084 -0.00012969565 0.0005048257
0003f0 12 b2 82 3c ae 5a 17 ba a5 eb b7 bc 7e ed 5b bc
       0.015954051 -0.0005773705 -0.022451231 -0.013423322

0.bias f4 [64]
000000 7b 40 15 bc 09 4b 06 bd 10 d8 b5 bd bd be c6 bd
       -0.009109612 -0.032786403 -0.08879101 -0.09704349
000010 56 cf e3 bd 98 7a ac 3e c9 7c 88 3d dc 05 10 bf
       -0.111235306 0.33687282 0.06664426 -0.5625894
000020 4e 6e 6e 3d 1e e6 08 be 29 52 e2 3d 48 d5 5c 3d
       0.058210663 -0.13369033 0.11050827 0.05391434
000030 39 67 26 bd 9c 37 b8 3d 2f 19 46 3e 64 52 f5 bd
       -0.040625785 0.08994982 0.19345544 -0.119786054
000040 12 7a cd 3d 59 f1 24 3e ea 7f c7 bd bc 5e 00 be
       0.10033049 0.16107692 -0.097411945 -0.12536138
000050 69 2f ef bc 60 8b 91 bd 93 54 48 3b ca 67 02 3e
       -0.029197412 -0.07106662 0.0030567988 0.12734905
000060 5a 99 e3 3d 95 55 49 bd 4c 65 cd 3d 87 55 f8 3d
       0.11113234 -0.049153883 0.100290865 0.12125688
000070 a9 c1 89 bd e8 37 bd 3c 29 b9 ea bd 6b ec 06 3f
       -0.06726391 0.023097947 -0.11461098 0.52704495
000080 78 fb b9 3d 90 c3 b2 bd bb 16 c8 bd 9b df 2c 3c
       0.09081167 -0.08728707 -0.097699605 0.010551359
000090 28 77 fb 3d ba 26 87 bd cc 8e 04 be 1e b9 4c 3e
       0.122785866 -0.065991834 -0.12945098 0.19992492
0000a0 15 fb be 3d d2 40 1f bd 49 45 02 3e f5 b6 c9 3d
       0.09325234 -0.038880177 0.12721743 0.098493494
0000b0 ff 69 20 3c 26 aa ae 3d a0 f1 a4 bd 3b 21 5b bc
       0.009790896 0.08528547 -0.08053899 -0.013374622
0000c0 15 2c b7 bd 88 96 8e bd 75 95 67 3d c5 3d 26 be
       -0.08943955 -0.06962305 0.056539018 -0.162345
0000d0 03 b6 18 be 2a 4a 92 3d 77 09 f8 3c 74 d9 27 be
       -0.14913182 0.07143052 0.03027795 -0.16391546
0000e0 39 b5 ac 3d 5a aa 42 bb a3 71 28 be 6f 7a bc bd
       0.08433003 -0.0029703588 -0.16449599 -0.0920304
0000f0 53 e8 f2 bd 64 01 b3 bd 87 50 ae be 5d 46 bc 3d
       -0.118607186 -0.087404996 -0.34045812 0.09193108

2.weight f4 [1, 64]
000000 62 80 3b 3d 42 38 d8 bd b2 cd 6f bd 40 45 1e be
       0.045776732 -0.10557605 -0.058545776 -0.15456104
000010 15 0f a2 be 01 75 45 3f 93 76 87 3c 04 79 db bf
       -0.31652132 0.7713166 0.016536033 -1.7146306
000020 13 56 d9 3e d0 52 b1 be cd bd a9 3e 2a 09 3d 3e
       0.42448482 -0.34633493 0.3315262 0.18460527
000030 6c 99 74 bd f8 3f 85 3e fb 1c b6 3e 47 10 3f be
       -0.059716627 0.26025367 0.35568985 -0.18658553
000040 b5 12 6e 3e 91 fc de 3e be 9b ba bd 15 3f 84 be
       0.23249324 0.43552068 -0.09111737 -0.25829378
000050 e5 81 b5 3c f3 9e 14 be 8d f2 51 bd b5 48 9f 3e
       0.022156665 -0.1451376 -0.051256705 0.3111016
000060 7c 6f 1d 3e 73 d9 88 be c2 eb 97 3d 6d 87 8f 3e
       0.15374559 -0.267284 0.07418014 0.2803301
000070 38 a7 0b be 8e 1e 49 bc 75 db 40 be ad 52 85 3f
       -0.13638008 -0.012275351 -0.18833716 1.0415856
000080 cb 51 fd 3d 24 9d da bd 5e 21 85 be b0 08 e2 bd
       0.123691164 -0.106745034 -0.2600202 -0.11036813
000090 9f c5 d1 3e a1 5d a3 be 66 32 9f be 4f 41 f6 3e
       0.40971085 -0.3190737 -0.31093138 0.48096702
0000a0 28 ff da 3d 63 91 0b 3d de f9 91 3e 29 08 dc 3d
       0.106931984 0.0340742 0.28510946 0.10743744
0000b0 04 af 24 3e db 38 0f 3e 90 39 24 be 6d 90 5b bd
       0.16082388 0.13986532 -0.16037583 -0.053604532
0000c0 14 43 a3 be ad e6 75 be 00 62 64 bd 13 84 f6 be
       -0.31887114 -0.24013777 -0.055757523 -0.4814764
0000d0 87 4d ba be b6 bd a6 3e 76 d4 16 bf dc 1e 09 40
       -0.36387274 0.32566613 -0.5891794 2.1425085
0000e0 fc a2 05 3e 8c 22 37 3e fc 0a 4d 3f 6a b8 86 be
       0.13050455 0.17884272 0.80094886 -0.26312572
0000f0 00 9e 88 be 16 12 0e be ed bf aa bf b8 8e 21 3e
       -0.26683044 -0.13874087 -1.3339821 0.15777099
