fcpo/saved-sessions/fairrec.pt (torch_old, 286077 bytes, 8 tensors)

0.weight f4 [64, 500]
000000 e7 09 99 bb 3d 01 34 3d fe cd ad bb 73 e6 bc 3c
       -0.00467037 0.043946493 -0.005304097 0.023059106
000010 65 e9 a7 bc b2 4d 71 3c a9 0f 55 bc 0d 42 bb 3c
       -0.020497033 0.014727997 -0.013004222 0.022858644
000020 39 09 5e 3d 96 db 3a bd d3 38 dc bb 56 99 02 3d
       0.054208014 -0.04561957 -0.006720641 0.031884514
000030 cc 63 39 bb c9 0a 11 bd b4 05 1b bd 1b 7b 8a 3c
       -0.0028288243 -0.035410676 -0.037847236 0.016904404
000040 c7 04 30 3d ad c1 ce 3c 27 14 06 3d 59 cd 28 bc
       0.042973306 0.025238836 0.032734063 -0.010302865
000050 c9 2a cc 3c 2e 0b 05 bc ab fb b0 3c f4 46 15 bd
       0.024922745 -0.008120341 0.02160438 -0.03644462
000060 87 de 3e bd a5 a6 3b bd f9 32 94 3c d9 ca 05 bd
       -0.046598937 -0.04581322 0.018090712 -0.032664154
000070 ee 16 3d bd a4 22 cf bc 7e c3 a9 3c 1f 77 4d 3c
       -0.046164446 -0.025285073 0.0207231 0.012540608
000080 2f da 93 3c c0 f8 40 3d 99 60 a6 3c 4e ae 1e 3d
       0.018048374 0.047112226 0.020309733 0.03874045
000090 55 2d 65 3d a7 e9 5e 3c aa 18 66 3b 68 91 d1 39
       0.055951435 0.013605512 0.0035109916 0.00039971923
0000a0 44 17 0f 3c f6 1a 2c bd c3 e6 26 bd 33 76 c0 bb
       0.008733574 -0.0420179 -0.040747415 -0.0058734654
0000b0 76 e4 28 3c 1c cb fa bc e7 7e ca bc 12 a9 ea bc
       0.010308376 -0.030614428 -0.024718715 -0.028645072
0000c0 b2 b8 83 bc 72 87 a7 bb d5 8c 0b 3d 69 e2 44 bc
       -0.01607928 -0.005112582 0.034069855 -0.012016871
0000d0 51 0f 5a bb 36 c3 b5 3c b1 6c 07 3d f9 0d 2b bd
       -0.003327329 0.02218781 0.03306264 -0.041761372
0000e0 e4 7d 6d 3d 2a 86 e5 bc 39 12 a5 bc 13 29 86 3b
       0.057981387 -0.028018076 -0.02015029 0.004094252
0000f0 6c 41 13 bd 41 78 2f 3c 5e 55 63 3c bf cd 86 3d
       -0.035951063 0.010709823 0.013875334 0.06582212
000100 7c 01 1c bd 0b 93 ac 3b ae ce 46 bc 91 ad c8 ba
       -0.038087353 0.0052665523 -0.012134237 -0.0015310516
000110 7c 57 25 bd ab 24 28 bd 91 69 7b bc 21 07 9b 3c
       -0.040366635 -0.041050594 -0.015344993 0.018924298
000120 27 00 3c 3d 61 c4 72 3d 45 10 88 3d ac 7f 49 bc
       0.045898583 0.059269313 0.06643728 -0.012298506
000130 9e 73 f6 bc 48 2c f0 bc 3e cb 70 bb ee 5f e6 bb
       -0.030084427 -0.02931799 -0.0036742236 -0.0070304787
000140 ae 93 5e bd 99 b0 a1 3c 99 57 a0 3c 4f 06 5a 3b
       -0.054340057 0.019737529 0.01957302 0.003326792
000150 e5 d6 f4 3c 4e ec b7 bb f2 09 29 bc 89 27 d5 bc
       0.029887626 -0.0056128865 -0.010317313 -0.026019828
000160 cc a7 c8 bc 72 b7 39 3d b8 29 09 3d ed 54 b8 bb
       -0.024494074 0.045340963 0.03348705 -0.0056253583
000170 b7 1a 6d 3c a4 00 40 bb c8 7c 2f 3b a6 54 39 bc
       0.014471701 -0.0029297257 0.0026777256 -0.011311686
000180 76 7d e0 bb cf 28 08 3d 00 12 b2 bc b2 1f 4c 3c
       -0.0068508936 0.033242043 -0.021737099 0.012458729
000190 4e 1e 8a 3c 3e 2f cd 3c ae da 99 bb c4 94 c9 bc
       0.016860154 0.02504694 -0.004695258 -0.02460707
0001a0 31 74 0f bd ca 24 0f 3d 95 66 ae 3c b8 15 ae 3c
       -0.035022918 0.034947194 0.02128915 0.02125059
0001b0 4a 4f 4b 3b 7a bf 6a bc e0 3d 45 b9 bd d2 25 bd
       0.0031022602 -0.014327878 -0.00018810434 -0.04048418
0001c0 98 b1 34 bd 8f 85 33 bc 61 69 dc 3c e6 1e aa 3c
       -0.04411468 -0.010957136 0.026905717 0.020766687
0001d0 3f 9d fa bc e5 03 9e bc 81 a7 c5 3c 02 87 4d 3d
       -0.030592559 -0.019288966 0.024127724 0.05017758
0001e0 0e 45 27 bd 26 6b c3 3c 48 c7 0a 3c c1 c5 8c bc
       -0.04083734 0.023854803 0.008470364 -0.01718414
0001f0 49 22 43 bc c0 ea c4 3a e8 ae 9f bc cc 19 20 3d
       -0.01191003 0.0015023574 -0.019492581 0.0390871
000200 45 75 13 3d 5a c7 e1 ba 99 65 3d 3d ae 95 61 bd
       0.03600051 -0.0017225549 0.04623947 -0.055074386
000210 4d 18 c0 3c ee 51 c1 3c 57 af 80 bc 8c 09 da bc
       0.023449088 0.023598637 -0.015708609 -0.02661588
000220 a6 9f dc 3c 46 4d 02 bd 36 e7 0d bd 71 40 8a 3c
       0.026931595 -0.031811975 -0.034644328 0.016876431
000230 f7 c9 61 3c c2 0b 4e bc 2f b2 8e bc 73 48 c5 3c
       0.013781062 -0.0125760455 -0.017418949 0.024082398
000240 f2 43 b4 3b b3 24 4b bd 9c 49 fe bc c6 3a 13 bb
       0.005501264 -0.049595546 -0.031040959 -0.0022465452
000250 bb 9a a8 3a c0 11 e3 3a 90 ec b0 bc fe d0 a0 3b
       0.0012863496 0.0017324015 -0.021597177 0.0049077263
000260 03 f2 fe bc e0 3b 1b bd 27 30 86 3d ce c8 1f bd
       -0.03112126 -0.037898898 0.06552153 -0.03900986
000270 6e a0 b4 3c e2 48 7d bc 19 7c 01 bb ac e6 04 bd
       0.022049155 -0.015459271 -0.0019757806 -0.03244655
000280 9e 47 4b bd bb af 24 bc 82 28 fd 3c dc 1e a9 bc
       -0.049628846 -0.010051663 0.030903105 -0.020644598
000290 b3 f6 48 3d d2 14 21 3d 4d ba 54 bd e3 b2 12 bd
       0.049063396 0.039326496 -0.051935483 -0.03581513
0002a0 ea 47 22 3d 87 b7 e1 3a 01 8c b3 bc da fa 92 bc
       0.039619364 0.0017220833 -0.021917345 -0.017941881
0002b0 ea 41 34 3c 72 37 ce 3c 65 19 0f 3d 20 a9 7f b9
       0.011002043 0.025172923 0.034936327 -0.00024381699
0002c0 07 27 36 bd d2 cf 24 bd 50 a1 da 3b 6a 90 51 bc
       -0.044470813 -0.040237255 0.006672062 -0.012790779
0002d0 75 97 26 bc 8b 2f 3c 3d ba 66 3d 3b 28 b2 e5 3b
       -0.010167946 0.045943778 0.002890034 0.0070097633
0002e0 3c 71 a9 3b d2 7d 45 bc 34 8f 03 bd 3c 97 16 3c
       0.0051709693 -0.012053924 -0.03211899 0.0091913305
0002f0 7b a0 d1 3c aa 6b 29 bb e6 0b d1 bc e0 55 be 3c
       0.025589218 -0.0025851526 -0.025518369 0.023234308
000300 4f ee bb 3c a3 2d a4 bc 9b f5 0b bb d8 14 f5 bc
       0.022940783 -0.020041293 -0.002135611 -0.029917166
000310 f7 57 a6 bc 27 84 4d 3d a3 66 83 3c 13 9b e3 bc
       -0.020305617 0.05017486 0.016040152 -0.027783906
000320 48 04 f9 bc c3 77 5f bd b2 c0 af bb fe 81 b8 bc
       -0.03039755 -0.054557573 -0.0053635472 -0.022522923
000330 17 ce 05 3d 3e 24 d6 3c 5f e5 bd bc da 58 fc bc
       0.032667246 0.026140328 -0.023180662 -0.030804086
000340 76 f0 9a 3a 6e f6 a7 bc 2c 3b 74 bc e3 f5 21 3c
       0.001182093 -0.020503249 -0.014906686 0.009885284
000350 10 34 30 bd 93 8d 45 3c 92 63 71 bc d3 00 b6 3a
       -0.0430184 0.01205768 -0.014733212 0.0013885744
000360 1e b0 26 3c 21 88 a8 3c b4 8c db 3c f3 18 b6 bc
       0.010173826 0.020572724 0.02680049 -0.022228694
000370 a2 20 5d bc 90 15 3c bd 2a 34 d1 3c 0a 6f 21 bd
       -0.01349655 -0.045919 0.02553757 -0.039412536
000380 46 20 bc 3c 1f e8 1b 3d 08 f9 2e 3d 96 21 ae 3c
       0.022964608 0.038063165 0.042717963 0.02125625
000390 5f 67 d1 bc 83 5a f2 bb bb 90 ff bc 8c 80 f9 bc
       -0.025561986 -0.0073960437 -0.031196943 -0.030456804
0003a0 21 48 0d bd 62 b3 24 bd 32 89 3d 3c 08 97 12 bd
       -0.034492616 -0.040210135 0.011568354 -0.035788566
0003b0 fa 3b c6 bb f8 02 bd bc 36 95 0e 3c bb d5 b3 bc
       -0.00604963 -0.023072705 0.008702567 -0.0219525
0003c0 70 95 ed bc d4 c8 6a bc 4a 88 19 bb 75 f4 79 3c
       -0.029001921 -0.014330108 -0.0023427182 0.015256037
0003d0 44 30 c5 bc 4f 05 fa 3c ea 3d 2b bc 68 f1 87 3c
       -0.024070866 0.03052011 -0.010451773 0.016594604
0003e0 a8 ad 1d 3d 08 a3 58 3d b2 7d 35 bc 58 26 df 3b
       0.03849569 0.052889854 -0.011077331 0.006809991
0003f0 32 3d 2c bd c1 7b 72 bc b9 25 0e 3c 63 c0 3e bd
       -0.042050548 -0.014800013 0.008675986 -0.046570193

0.bias f4 [64]
000000 70 a3 d7 3c e6 3a e7 bc 97 c8 9a bc 05 fd 06 bd
       0.02632305 -0.028226327 -0.018894477 -0.032956142
000010 45 17 cd bc 7a 9c af 3c ec 0a 64 bd af 1e 88 3c
       -0.02503551 0.021436919 -0.05567448 0.016616194
000020 82 29 01 3c e1 af 2e bd de e5 78 bc 63 10 1e bc
       0.007883431 -0.0426482 -0.015191523 -0.009647462
000030 e4 75 4a 3c e9 1f 0f bd ad 4a 34 3d df 97 6c bb
       0.012357209 -0.03494254 0.04401653 -0.0036101264
000040 b3 a2 e8 3c f1 65 b2 3c a9 83 5a 3c b1 69 ef bc
       0.028397894 0.021777125 0.013337054 -0.029225202
000050 7e a7 02 bd 2e 31 16 3d ec ca 18 3c 57 aa d0 bc
       -0.031898014 0.036667995 0.009325724 -0.02547185
000060 eb 40 2d 3c 8f 35 b2 bb 8c 99 88 bc 4f 01 6c 3b
       0.01057456 -0.0054385136 -0.01667478 0.0036011522
000070 a5 a3 84 3c 31 68 bd bc b8 67 23 bb b2 6a a3 3c
       0.016191313 -0.023120971 -0.0024933647 0.019948337
000080 d6 41 a9 bc a2 71 84 bd 2a 8d d0 ba 66 58 58 3c
       -0.020661276 -0.06466986 -0.0015911211 0.01320467
000090 88 84 0d 3d 14 3b c7 3c ed 5f 1f 3c a0 bc f3 3c
       0.03455022 0.024320163 0.00972746 0.02975303
0000a0 02 3f ad 3c 98 4d 30 bd 93 a7 22 bc c0 d9 09 3c
       0.021148209 -0.04304275 -0.009927648 0.008413732
0000b0 c2 4c 84 3c d6 31 c3 bc 34 a0 31 bd 4d 6e 4f bc
       0.016149882 -0.023827475 -0.043365672 -0.012660575
0000c0 72 60 0e 3d 18 8c c9 bc d6 4c 2b bb af 23 0c bd
       0.034759946 -0.024602935 -0.0026138327 -0.034213718
0000d0 18 8f 0f 3c 52 75 97 bb 6c 64 00 bd 9a e5 83 bb
       0.008762144 -0.00462214 -0.03134577 -0.0040251734
0000e0 f8 90 17 3c 06 e7 d2 3c aa d8 1b 3d 16 32 e9 3b
       0.009250872 0.025744926 0.038048424 0.0071165664
0000f0 bc e5 1d bd 55 ba 50 3b 3a 3f 4c 3d f7 3a 4d 3d
       -0.03854917 0.0031849344 0.049864985 0.05010506

2.weight f4 [100, 64]
000000 8d e7 aa 3c 06 d8 6c 3c 80 14 08 3c aa 3a d7 3c
       0.020862365 0.014455801 0.008305669 0.02627309
000010 2f 6d 27 bc f2 2b 0a bc 9b d9 15 3d c4 98 c3 3c
       -0.0102189025 -0.008433329 0.036584478 0.023876555
000020 a7 8b 02 3c 10 da 99 3b 10 8e b8 bc f9 8d 0d bd
       0.007967866 0.0046951845 -0.022528678 -0.034559224
000030 92 64 c0 3c 00 de 2a 3d c5 4b 7f bb de d4 4b 3d
       0.023485456 0.041715622 -0.0038955074 0.049763553
000040 1e 54 ce 3c de f0 e7 3c ab c0 43 3c 64 7b ba bc
       0.025186595 0.028313097 0.011947791 -0.022763915
000050 28 70 40 3d db fb 1f 3d 39 8c 97 3c 09 32 58 3d
       0.04698196 0.039058547 0.01849948 0.052782092
000060 a1 b2 81 3c 1b 92 a8 bc 84 f9 08 bd e2 63 92 3c
       0.015832247 -0.020577481 -0.03344108 0.017869893
000070 34 57 77 3d 65 b2 e6 bb 70 34 9a 3d e6 5d c7 bd
       0.060385898 -0.0070403093 0.07529533 -0.097347066
000080 58 ac b9 3d 0f ab 80 bc 37 c6 35 3d 14 14 19 3d
       0.09066075 -0.015706567 0.044378486 0.037372664
000090 ec 94 e6 bc a8 4a 49 bd bf 5b 13 3d 05 c2 6e 3c
       -0.028147183 -0.049143463 0.035976168 0.014572625
0000a0 3f a2 38 bd d6 c0 cb 3c de fa 98 3c 34 a2 ba 3c
       -0.045076605 0.024872225 0.01867431 0.022782423
0000b0 b9 9e 69 3c 91 c2 7f 3d 12 c2 2f 3d e0 72 75 3d
       0.014259034 0.062441412 0.04290969 0.059924006
0000c0 84 79 19 bc cf 99 69 3d 1e 7e 35 3d 9a dd 9e 3d
       -0.0093673505 0.05703145 0.044309728 0.07757111
0000d0 5a 77 72 bd 70 f3 6f bc 2b b6 06 3d 53 61 1f 3d
       -0.059195854 -0.014645442 0.032888573 0.038911175
0000e0 97 41 77 bd 5a 4f 19 3d a4 a8 68 3b 75 a8 0c be
       -0.060365286 0.03742919 0.0035500908 -0.13736136
0000f0 af 78 35 3d 3c 38 aa 3c 7e cd 92 bd cf 9c 14 3d
       0.044304546 0.020778768 -0.07168101 0.036282357
000100 d6 2b 27 bb c0 7b 8f bb 60 7d fc 3a 4f 17 ad bb
       -0.0025508306 -0.004378766 0.0019263439 -0.0052823196
000110 7e 0e 4c 3c 77 a0 f9 bb a7 e3 0f bd aa 12 d2 3c
       0.012454627 -0.007618006 -0.035129216 0.025643665
000120 48 6c f1 bb 68 61 c5 3b fc ce ae bc ed 61 b9 bc
       -0.0073676445 0.0060235746 -0.021338932 -0.022629702
000130 a5 3d 3e 3c 8a db bd bb bc fd 4f 3c a8 ef 04 bc
       0.011611377 -0.0057939934 0.012694772 -0.008113779
000140 b7 9e 6f bc 80 4a 6a b7 eb 1c 8b 3c fe ac 17 bb
       -0.014625243 -1.3964833e-05 0.016981563 -0.0023143883
000150 2d 2e c3 ba 7a de 35 bb fa 84 15 3d 61 63 98 3b
       -0.0014891081 -0.0027751015 0.03650377 0.0046505188
000160 dc 68 0d bc f1 bb 06 3b b8 9e 4b b9 60 d5 97 3b
       -0.008630957 0.00205588 -0.00019418716 0.0046335906
000170 33 73 c1 3c 88 dd 5f 3c 15 a0 98 bc 5e 22 6f bc
       0.023614502 0.013663657 -0.01863102 -0.014595596
000180 c1 8a 0c bd 94 02 67 3b de 87 af bb 3b a5 49 3b
       -0.034312014 0.003524934 -0.005356773 0.003076865
000190 d9 84 bf 3b 8c fd 09 3c 29 b5 35 3c 45 f7 b2 bc
       0.005844694 0.008422267 0.011090555 -0.021846423
0001a0 5b 09 29 bc 0e ed ad bb f2 54 0d 3d a9 3e 0d 3d
       -0.010317172 -0.0053078 0.03450484 0.034483586
0001b0 68 23 8b 3c 28 58 50 3c 36 19 42 3c 54 cd 48 3c
       0.016984656 0.012716331 0.011846831 0.012255985
0001c0 38 bb 7b bc b6 12 6d 3c be 4a 76 3b a0 72 b0 bb
       -0.015364461 0.014469793 0.003758117 -0.005384758
0001d0 e0 4b 35 ba a2 9a 6b bc 1e 65 cb bb b0 57 1a bb
       -0.00069159083 -0.014380129 -0.0062071225 -0.00235508
0001e0 28 bb 85 bc e2 4a 8b 3b 46 54 1d bc 3c b3 81 3a
       -0.016324595 0.00425087 -0.009602612 0.0009895335
0001f0 b7 57 b4 bb 10 a5 90 b9 c9 42 b7 bb 0f 0a dd bc
       -0.0055036205 -0.00027588801 -0.005592678 -0.026982335
000200 78 65 d4 ba 86 a6 3e bb 0c c8 3a bc af 5e ac bc
       -0.0016204556 -0.0029090955 -0.011400234 -0.021041242
000210 44 33 8f ba 79 b3 95 3c 91 51 79 3b d6 8a e2 ba
       -0.0010925313 0.018274056 0.0038043002 -0.0017283808
000220 9e c8 9e 3b 22 47 0c bc 54 70 83 3c 3f 27 39 bc
       0.004845693 -0.008561881 0.016044773 -0.011300861
000230 6e 94 65 bc 4f 47 7b 3c d0 c8 ce ba fa 38 08 3c
       -0.014012439 0.0153368255 -0.00157764 0.0083143655
000240 c0 a0 74 bc 08 c1 57 bb b4 b0 a0 bc 40 98 00 3c
       -0.014930904 -0.0032921452 -0.019615509 0.007848799
000250 8f 3b 4b bb fe 22 11 3b 05 6a 43 bb 4d c2 61 bc
       -0.0031010841 0.00221461 -0.0029817831 -0.013779235
000260 32 96 70 bc 7a 6d 13 3c f8 80 8d 3b be 1d 5a 3a
       -0.014684247 0.008998269 0.004318353 0.0008320472
000270 e4 a1 83 3c 36 97 7e 3c c3 34 c1 3b 07 88 27 3c
       0.016068406 0.015538981 0.0058961823 0.010225303
000280 8d af 64 bc 55 af b5 bb 84 7b 67 bc 22 43 29 3c
       -0.01395787 -0.005544583 -0.0141285695 0.010330947
000290 78 dd db 3b c4 b0 a8 3c 09 10 75 bc 45 a0 d5 3b
       0.0067097507 0.0205921 -0.014957436 0.0065193498
0002a0 b4 0a 62 3c 46 38 72 3b a2 43 f3 3b 86 5d 8f 3c
       0.013796497 0.003695981 0.007423834 0.01750065
0002b0 b7 0c be bc b1 75 f0 bb cb 70 45 bc d2 95 ce bc
       -0.023199422 -0.0073382487 -0.012050818 -0.025217924
0002c0 7a f9 0c 3c ea a8 72 bb ac ee 8a 3c 12 58 58 ba
       0.008604402 -0.003702695 0.01695951 -0.00082528696
0002d0 a7 25 13 3c 93 e5 bf 3b 55 98 ed bc a1 a4 b5 bc
       0.008981145 0.005856225 -0.029003302 -0.022173228
0002e0 90 29 d2 3c f5 f3 d5 3c 92 33 ec 3c 82 72 8c 3c
       0.025654584 0.026117304 0.028833184 0.017144445
0002f0 32 78 66 3c dc 90 ae bc b5 a7 dc 3c b1 0f 86 bc
       0.014066743 -0.021309309 0.026935438 -0.016364904
000300 0e fd a1 3b 1a 3b 1e bc c0 dd 80 bc aa 10 0c 3d
       0.0049434965 -0.009657646 -0.015730739 0.03419558
000310 40 82 63 3b af 85 4d ba b5 83 2a bc a8 6f 32 bc
       0.0034715086 -0.000784005 -0.010407378 -0.010890879
000320 7b 60 bf 3b f5 d5 23 3c 5e 49 ac 3c 9b 05 dc 3c
       0.005840359 0.009999742 0.021031078 0.026858142
000330 db 6a 39 3c aa 6e c6 3c 39 e8 de bb 62 6b f8 bb
       0.01131698 0.02422269 -0.0068025854 -0.0075811604
000340 3e d4 4e 3c 10 dc 66 3c 61 50 8a bc f7 f9 97 bc
       0.012623845 0.014090553 -0.01688403 -0.01855181
000350 c8 e3 0b bc 35 33 56 3c 36 c9 0f 3c 62 c8 99 bc
       -0.008538194 0.013073732 0.008776 -0.018772308
000360 87 7d 9e 3c ff 8e ff bb b3 7d 04 3c a5 ac 39 bc
       0.019346965 -0.007799029 0.00808661 -0.011332666
000370 2b ae 77 bc fc 42 16 bc 10 a6 86 bc e8 96 e5 3c
       -0.0151172085 -0.009171244 -0.016436607 0.02802606
000380 9f e8 01 bc a1 82 86 3c 7e 27 c9 3c 10 2d 43 3c
       -0.007928996 0.01641971 0.024554964 0.011912599
000390 2d dd 73 3c a6 78 1a bc 8c ef 92 39 7a 08 96 bc
       0.014884275 -0.009428179 0.00028025766 -0.018314589
0003a0 86 83 13 bc c0 d1 b9 b9 d7 68 ca 3b 66 c6 0c bc
       -0.009003526 -0.00035442226 0.0061770487 -0.008592224
0003b0 df 24 de bb 1e 8a a6 bc 8d fc 09 bb b6 94 c0 bb
       -0.0067792977 -0.020329531 -0.0021055073 -0.0058771027
0003c0 66 b7 c7 bc 7f 6e ed bb db e9 e8 3c 76 7b be bb
       -0.024379443 -0.007245838 0.028431823 -0.0058130575
0003d0 a3 df bb 3b d4 a8 a9 bc ba 72 12 3c 94 61 a3 bb
       0.0057334467 -0.020710386 0.008938486 -0.0049859975
0003e0 ce df 64 3c e5 a0 26 3c 42 e4 30 3c 6e 97 a0 3c
       0.013969375 0.010170196 0.010796608 0.019603457
0003f0 91 27 a3 3c f6 47 1d 3c 01 fc f0 3a de b0 80 bb
       0.019916328 0.009599676 0.001838565 -0.003927334

2.bias f4 [100]
000000 f2 4f d5 bd f0 93 ce bc ed ad 6c 3d cf 22 a3 bd
       -0.10415639 -0.025217026 0.057783056 -0.079656236
000010 b4 61 c7 bd 39 c0 61 bd 44 03 9f 3d 30 bc 9b bd
       -0.09735432 -0.05511496 0.07764295 -0.07604253
000020 d0 87 67 bd c6 b9 28 3c 8f e2 2a bd 46 24 d4 bc
       -0.056526005 0.010298198 -0.04171997 -0.025896203
000030 b2 ec 2c 3c 9e 1d 5b 3c 5b 23 9d 3d ec 36 04 3c
       0.010554479 0.0133737605 0.07672759 0.008069735
000040 0a 2c f9 bc f8 b2 92 bd 5f 64 ba ba 51 08 d9 3c
       -0.030416507 -0.07163042 -0.0014220587 0.026493223
000050 65 63 3a 3d 59 e6 33 3d a5 44 47 3c 42 3e 21 3d
       0.045504946 0.04392085 0.012162362 0.039366014
000060 aa 1e 13 3b 47 38 b9 3c 00 d8 0a bc f7 9f 72 3c
       0.0022448697 0.022609843 -0.00847435 0.014808646
000070 ca f6 7d bd 64 fe 64 3c 10 02 93 bc c8 cc 94 bd
       -0.062002935 0.013976667 -0.01794532 -0.072656214
000080 5f ae 39 bd d0 84 52 bc 7a 97 75 bd 4a 73 ea 3c
       -0.04533231 -0.012849048 -0.059958912 0.028619427
000090 48 0b 2b 3c d4 a2 64 bd bb 0c 8c 3d 58 dc d3 3c
       0.010439701 -0.055819348 0.06838366 0.025861904
0000a0 46 b9 31 3d d5 41 8f bd d3 9f b7 bd f9 ae b9 bc
       0.04338958 -0.06994978 -0.08966031 -0.022666441
0000b0 4b 41 ad bd a6 49 9c bd 03 f5 4b 3b a9 93 97 bd
       -0.08459719 -0.07631235 0.003112138 -0.07401211
0000c0 04 b5 ce 3c 4a b6 a3 bc dc 51 8c bd 0a 78 6b 3d
       0.0252328 -0.019984383 -0.06851551 0.057487525
0000d0 b0 43 90 3c 56 02 81 3d b2 20 97 3d b8 59 04 bd
       0.0176104 0.06299274 0.07379283 -0.032312125
0000e0 a9 30 bf ba 0b 0d 2c 3b fe 88 aa 3d 39 dc 78 bd
       -0.0014586645 0.0026252891 0.083269104 -0.060756896
0000f0 18 4a f0 bd 5b 31 01 bd 64 eb 8c 3c a8 aa ea 3c
       -0.11732882 -0.03154121 0.017202087 0.028645828
000100 9c 6f 5a bd 19 61 25 bc 66 dc a7 3b ec 96 99 3c
       -0.053329095 -0.010093951 0.005122709 0.018748723
000110 e0 fe 6e bb 0b 80 76 bd 33 32 1a 3d bc 7e 62 3d
       -0.0036467835 -0.060180705 0.03764553 0.055296645
000120 c6 71 bb 3c 0b f7 82 3d 7e 70 e3 bb cb 8e a2 bc
       0.0228814 0.06394776 -0.0069409003 -0.01984348
000130 09 01 8e bd 76 58 05 3d 56 b3 69 3c e7 33 16 3d
       -0.06933791 0.032555066 0.014263948 0.03667059
000140 90 ec 42 bc 54 94 17 bc 30 2d 63 bd 22 34 5f 3d
       -0.011897221 -0.009251673 -0.055463016 0.054493077
000150 81 c1 19 3d 8a 41 75 bb 12 7b 04 bd b6 d6 a6 3d
       0.037538055 -0.0037423098 -0.03234393 0.081464216
000160 ee 57 a6 bc b9 7d 10 3d a5 60 b6 3c 2e 96 f9 bc
       -0.0203056 0.03527615 0.02226288 -0.030467119
000170 d5 d1 20 3d d4 e4 18 3d 82 a6 82 3d 27 fb f3 ba
       0.03926261 0.037327603 0.06379415 -0.0018614278
000180 2e 40 3c bd ac 43 6d 3d 2e ae 04 bb 3c 05 93 bb
       -0.045959644 0.057925865 -0.002024542 -0.004486708

3.log_std f4 [100]
000000 58 f8 e4 bc fc 69 6a bb 80 08 8b bb 34 a4 e0 bb
       -0.02795045 -0.0035768738 -0.0042429566 -0.006855512
000010 73 c4 5c bc e2 2e 2f 39 d6 4b f6 b9 78 1f 72 bc
       -0.0134745715 0.00016706766 -0.00046977279 -0.014778011
000020 b2 cc 8b bb 54 da 94 bb 53 85 91 bb 88 dd 3b bc
       -0.004266345 -0.0045426283 -0.0044409423 -0.011466391
000030 cf 2a 1f bc a7 e1 22 bc eb 49 06 bd 13 8c 96 bb
       -0.009714796 -0.009941495 -0.032785337 -0.004594335
000040 99 17 d7 bc 9a 6e a5 bb 85 b6 cd bb ac c9 ec ba
       -0.02625637 -0.005048585 -0.0062778615 -0.0018065474
000050 54 5f 25 bc 20 61 18 36 bf 86 49 bb 8e 8f bb bc
       -0.010093529 2.27063e-06 -0.003075048 -0.0228956
000060 35 e0 a3 bb 72 bc 31 bb 96 67 f9 bb 01 7d c7 bb
       -0.005001093 -0.0027120379 -0.0076112254 -0.0060878997
000070 c3 47 7c bc 11 d2 9a bb ec 0f 3c bc 4c 24 67 bb
       -0.015397969 -0.004724749 -0.011478405 -0.0035269437
000080 6c ab 58 ba 37 36 23 bb 4a ac cf bb 22 6f dd bc
       -0.000826529 -0.002490414 -0.006337677 -0.027030531
000090 94 9e e9 bb b8 25 a0 bc 95 9c 64 ba 54 7a 60 bb
       -0.0071294997 -0.019549236 -0.00087208423 -0.00342526
0000a0 eb c0 e8 bc 45 92 4f 3a 5d 24 3a bb a6 8e 2e bc
       -0.028412303 0.0007918219 -0.0028403022 -0.010654127
0000b0 d0 31 2c bc 0d 2b b0 bc 73 d9 85 bb 3a 15 a2 bc
       -0.010509923 -0.021504903 -0.00408476 -0.019785512
0000c0 fe 33 c5 bb ec 1b 15 bd e5 12 18 bb 86 e4 30 bc
       -0.006018161 -0.03640358 -0.0023204621 -0.010796672
0000d0 55 1a 50 bc 42 6f 85 bb 4a fd 32 bc a6 a2 d1 bc
       -0.012701591 -0.004072101 -0.010924647 -0.025590252
0000e0 8f 43 1f bc 28 5f 5a bb 04 52 00 bd e9 32 e5 b9
       -0.009720697 -0.0033320878 -0.031328216 -0.00043716215
0000f0 e2 0b 92 3a 6c 5e e9 ba 1b 79 b2 bc 84 e4 fa bb
       0.0011142457 -0.0017804629 -0.021786263 -0.0076566357
000100 ed 2d c6 bb 83 9e 74 bb e5 ad 50 bb be 3f 1a bc
       -0.0060479552 -0.0037325926 -0.003184193 -0.009414611
000110 54 e3 37 bc a6 bb 84 bc 59 f3 fc ba 4d 38 d5 bc
       -0.011223633 -0.016202759 -0.0019298597 -0.026027823
000120 1e 24 bd bb ef ca 16 bc 7c 89 7f bc b5 02 05 bc
       -0.005772128 -0.009203657 -0.015596744 -0.008118321
000130 54 64 84 bb 58 b4 67 ba 11 da b5 bb 80 b7 19 bb
       -0.0040402804 -0.0008838824 -0.005549677 -0.0023455322
000140 d2 7b 33 bb 4d 0a 0c bb c7 9d ad bb 70 06 96 ba
       -0.0027387035 -0.0021368444 -0.0052983495 -0.001144601
000150 a9 ff 39 bc f4 ac b5 bc 4c 8f 29 bc 9e 9f 6c b9
       -0.011352458 -0.022177197 -0.010349106 -0.00022566176
000160 7b 45 2e bc d0 55 3b bc a5 65 45 bb 54 19 e5 bb
       -0.010636683 -0.0114340335 -0.00301204 -0.0069915447
000170 6a eb c4 bb 68 b4 8b bb 46 1e a4 39 39 08 41 bb
       -0.006009509 -0.0042634495 0.00031303073 -0.0029454364
000180 ff 32 c2 bb 65 55 8c bb 79 8c 4b bc 46 c4 5a bb
       -0.0059264894 -0.0042826408 -0.012423628 -0.0033381148

0.weight f4 [64, 501]
000000 0c b2 03 bd fe 9e d2 bc c5 58 03 bd 2d a7 29 bc
       -0.03215222 -0.025710579 -0.03206708 -0.010354799
000010 86 d7 21 bd af b5 4a bc 61 e4 c4 bc 6c f4 09 bd
       -0.03951218 -0.012372418 -0.02403468 -0.033680364
000020 20 2b 29 bd f6 6b d6 3c c4 8e 9f bc 33 22 1c 3b
       -0.041300893 0.026174527 -0.019477256 0.0023824095
000030 8e 57 02 bd ba f0 f6 3c 55 5e 63 3b d6 0b f1 bb
       -0.03182178 0.030144084 0.0034693677 -0.0073561473
000040 a1 b7 8e bc 60 6d 05 3d 95 a1 df bc f0 e2 16 3d
       -0.017421545 0.03257501 -0.027298728 0.03683752
000050 2c 5c 6f bc 5e 03 e3 bc 4d 53 ba 3c b3 4f 42 bc
       -0.014609378 -0.027711567 0.022744799 -0.011859822
000060 3c f0 22 bc 10 dd dc 3c 13 54 8f bc 71 37 27 3c
       -0.009944972 0.02696088 -0.017496144 0.010206089
000070 15 8b 3b 3c 0d d0 b2 bc d3 6b 78 bc 57 ee 1d 3d
       0.011446734 -0.021827722 -0.015162426 0.038557377
000080 09 25 73 bb fa 41 21 3d ad ed 9c bc 3c 36 1a 3d
       -0.0037100932 0.03936956 -0.019156301 0.03764938
000090 a2 0e 0a 3d 17 80 fc 3c 93 ee 00 bd 8c 19 1e bb
       0.03370536 0.030822797 -0.031477522 -0.0024124114
0000a0 81 83 6c bc 43 8e 46 3c 14 39 a8 3c da 48 8f 3c
       -0.01443565 0.012118879 0.02053503 0.017490793
0000b0 72 1a 79 3c 64 89 4a bc be 3d ac bc d0 39 ee bb
       0.015204059 -0.012361858 -0.021025535 -0.0072700754
0000c0 56 d2 1f 3d c4 64 9f 3c 87 a5 16 3c 75 11 85 bb
       0.03901895 0.019457228 0.009194738 -0.004060919
0000d0 a7 84 c4 bc b2 46 b2 bb d9 f1 98 3c 42 bb c6 bc
       -0.023989035 -0.0054405564 0.01867001 -0.024259213
0000e0 a6 91 1d 3a 3f 40 c2 bb da 3a 61 3c 7c 7c 1b bd
       0.0006010778 -0.005928069 0.013746941 -0.037960514
0000f0 f9 4e 03 3d 4e bb 12 bd 0f 96 de 3b f6 fd 14 3d
       0.032057736 -0.03582316 0.0067927907 0.03637501
000100 c7 82 23 3d a8 9c 58 bc 58 f6 26 3d ef 1f bc 3b
       0.03991964 -0.0132209435 0.040762275 0.0057411115
000110 d0 1c 13 3d d5 eb b3 3c fd c2 b0 3c 2f 75 eb bc
       0.03591615 0.02196304 0.021577353 -0.0287424
000120 c3 0b 97 3b a1 ed 13 bd ea bd 30 3d ab 16 5d bb
       0.0046095564 -0.036115292 0.043149866 -0.0033735435
000130 fb fd f5 bb 92 5b a2 3c f1 b3 59 3c 1e 74 8a 3b
       -0.0075070835 0.019819055 0.01328753 0.004225268
000140 c2 fd 6f 3c 16 4f 0d bd 30 fd 36 bc 6d 9a 06 3d
       0.014647903 -0.03449925 -0.011168763 0.032862116
000150 36 3a 1c bd 8b c6 fd bc ef 79 84 bc e4 0d 08 3b
       -0.03814145 -0.030978462 -0.016171424 0.0020760233
000160 2f 96 cb ba a1 af 15 3d ef 41 25 3d 92 45 0d bd
       -0.0015532429 0.036544446 0.040346082 -0.034490176
000170 d9 dc ac 3c 08 19 18 bd b7 66 b6 3b 8f cc 23 bc
       0.021101402 -0.037133247 0.005566444 -0.009997501
000180 30 68 8a 3c 3a d2 91 bc a9 10 05 3d 13 20 87 bc
       0.016895384 -0.01780044 0.03248659 -0.016494786
000190 33 1f f6 bc 58 ac 11 3d 72 37 01 bc 96 91 9b bc
       -0.030044174 0.03556475 -0.007886754 -0.01899032
0001a0 2f 42 eb bc 0b 3b e3 3a 5b df f7 bc ad 3f 64 bc
       -0.028718082 0.0017336322 -0.030257871 -0.013931197
0001b0 4c 62 91 bc 48 e1 15 bd 0b 93 f0 bc d8 7c 69 bc
       -0.017747067 -0.036591798 -0.02936699 -0.0142509565
0001c0 66 5c 9e 3c df 9a b6 bc 2b f4 19 bc 20 76 f5 3b
       0.019331168 -0.022290645 -0.009396593 0.0074908882
0001d0 93 27 08 3d 0e 6d 25 3c c0 7d da 3c e2 b0 9f 3c
       0.033240866 0.010096801 0.02667129 0.019493524
0001e0 73 e4 cd bb db bf 15 3d 94 e8 b2 3a 86 7c e9 bc
       -0.006283337 0.03655992 0.0013649636 -0.02850176
0001f0 95 5a 19 bd b4 2d 0f 3c fd 43 3d 3b 88 f6 4f 3c
       -0.0374399 0.008738924 0.0028879636 0.012693055
000200 f5 57 c8 bb 0e d6 1a 3d 9a 61 a3 3c 98 6b bd bb
       -0.006114001 0.037801795 0.019944001 -0.0057806484
000210 d1 f1 1f bd 2f 97 87 3c cb 5b 4c 3c 75 84 f6 bc
       -0.039048973 0.016551582 0.012473057 -0.030092457
000220 51 91 15 bd a4 e9 3a bb 7c 4e 7c bc 2e d0 05 3c
       -0.036515538 -0.0028520608 -0.0153995715 0.00816731
000230 6c 05 82 bc 3a 1d 33 bd 40 81 35 bd a1 e2 77 bb
       -0.015871726 -0.043729044 -0.044312716 -0.003782429
000240 1b 94 a8 3c be a4 01 bc e8 40 f6 bb 7a b7 be bc
       0.020578435 -0.007912813 -0.0075150616 -0.023280848
000250 91 21 9e 3c bc 37 9f 3b ef 02 08 bc 61 8f d3 3b
       0.019303115 0.004858939 -0.008301481 0.006456301
000260 9b 4b 43 3a b0 a8 8d 3c 43 c9 99 3b f0 6a 8d bc
       0.0007449926 0.01729235 0.0046931817 -0.017262906
000270 25 0f 12 3d c0 22 04 bd 4c ac 80 bc 36 e1 1c 3d
       0.035658974 -0.032259703 -0.015707158 0.038300715
000280 ee 9f c8 3c ee e7 28 ba 78 81 4e bc 58 32 36 3b
       0.024490323 -0.00064432516 -0.01260411 0.0027801003
000290 c4 dc bd 3b 26 e0 ba bc 2b de fb bb 3b f7 c7 3c
       0.0057941396 -0.02281196 -0.0076863966 0.02440988
0002a0 89 bd e3 3a 0b af f3 bc 33 82 31 bd db c8 89 bc
       0.0017375211 -0.029746553 -0.04333706 -0.016819408
0002b0 95 bd a0 3a 04 76 f3 3c fc 3b e9 bc be 45 15 3d
       0.0012263531 0.02971936 -0.028470986 0.036443464
0002c0 43 2a 6d bc 0c 16 6d bc 33 f4 b1 3c 1f 3c 24 bd
       -0.014475408 -0.014470588 0.021722889 -0.0400964
0002d0 dc 24 cb 3c 46 bd 7f 3c 2a 3e 47 bc de 11 3e 3b
       0.02479785 0.015609091 -0.012160817 0.002900235
0002e0 e0 a4 49 bc f3 36 76 bc 5b 94 a3 bb f6 b0 2d bd
       -0.012307376 -0.015027749 -0.0049920506 -0.04240509
0002f0 c0 e6 13 3d 7f fe b1 bb c6 a5 93 bc e4 82 bd 3c
       0.036108732 -0.0054319496 -0.018023383 0.023133703
000300 5d 4e f6 3b 8c 7a 82 3c ed b7 1b bd a1 e7 e2 ba
       0.007516666 0.015927576 -0.038017202 -0.0017311462
000310 62 9b f7 b9 e7 cf e5 bc 72 76 84 bc ad 42 2e bd
       -0.0004722728 -0.028053237 -0.01616976 -0.042544056
000320 f9 74 0c bd 6d 70 22 3d f5 89 cc 3c 4a b3 05 bd
       -0.03429124 0.039658 0.024968127 -0.032641686
000330 22 6d f9 3c cc c3 29 bd 4e 4d 1b bd 6f cd ff 3c
       0.030447546 -0.041446492 -0.03791552 0.031225888
000340 3f 25 35 3c a0 a1 11 bd 31 7a 90 3c 2e 52 bb 3c
       0.011056243 -0.03555453 0.01763639 0.022866335
000350 aa 6e fb bc 74 9a 37 3c 8b 9d 1d bd 60 dd 2f bc
       -0.030692417 0.011206258 -0.038480323 -0.010733932
000360 67 b1 57 bc 12 90 78 3c cd 2d ac 3c 96 52 19 3d
       -0.013164855 0.015171068 0.021017933 0.037432276
000370 ee 35 40 bc 0c 37 13 bd 77 ce 9d bb fa 4b bb 3c
       -0.011731608 -0.03594117 -0.0048158723 0.022863377
000380 d0 b9 3a 3b 8f 18 89 3c b7 c4 70 3c ff d2 cf bc
       0.00284921 0.016735343 0.014695338 -0.025369165
000390 dc ef e9 bb 0a 83 07 3d 55 d0 b9 3b 37 50 16 3d
       -0.007139189 0.033083953 0.005670587 0.036697593
0003a0 03 15 22 3d cc c9 62 3b 8d 82 9c 3a 59 d5 9f bc
       0.03957082 0.0034605144 0.0011940763 -0.019510912
0003b0 9e 03 9b 3c 2c 65 d3 3c ce 51 18 3d f3 3a d8 3c
       0.018922623 0.025805078 0.03718739 0.026395297
0003c0 cb e7 99 3c f3 ea 49 bd 4d 39 10 3d a9 09 36 bc
       0.018787285 -0.04929633 0.035210896 -0.011110702
0003d0 65 8a 94 3c 9d e6 22 bd e1 15 a1 3c da 94 99 3c
       0.018132398 -0.03977071 0.019663753 0.018747736
0003e0 07 ab ea 3c ce aa 2c 3d 78 26 bb 3c 92 62 cc ba
       0.028646005 0.04215508 0.022845492 -0.0015593341
0003f0 4e a0 b9 39 f5 1f ab bc 3a 0a 60 3c 33 68 b1 bc
       0.00035405386 -0.020889262 0.013674313 -0.021656131

0.bias f4 [64]
000000 9c e1 af bc 1b 45 24 3e 92 de 74 bd 59 c9 0a 3e
       -0.021469884 0.16041987 -0.059782572 0.1355337
000010 2f 31 f0 bd 10 b9 e5 bc 9c 0c d9 3d 5a b2 75 3e
       -0.11728131 -0.028042346 0.10598108 0.23993817
000020 f4 52 ce 3d 64 75 75 3d 1a 30 2b bd ad c1 dd 3c
       0.10074416 0.059926406 -0.04179392 0.02706989
000030 4b fd 8e be 44 c2 70 bd de fc 03 3d e9 53 49 be
       -0.27927622 -0.058779016 0.032223575 -0.19660915
000040 00 77 8b 3d 7a 2c 3c be 84 ad 65 3e 24 c7 37 3e
       0.06809807 -0.18376341 0.22429472 0.1794706
000050 03 3d 39 3c a4 5f 26 bd a3 19 27 be 33 25 77 3d
       0.01130605 -0.040618554 -0.16318373 0.06033821
000060 e9 f2 1a be 88 ba 40 3d 47 a2 fd bc ca e8 e0 3d
       -0.15131725 0.04705289 -0.030961169 0.10981901
000070 fd 17 00 3e 0b 40 c5 3d 5f 6a 33 3e da 15 cf bd
       0.12509151 0.09631356 0.17521046 -0.1011159
000080 f1 6e 61 3e 66 7a 41 bd 39 95 6a bc 5c 5a d6 bd
       0.22014977 -0.04723587 -0.014317804 -0.104664534
000090 53 82 da 3d 3b 4b 8c bd cd 1d 08 3e 10 34 03 3e
       0.106693886 -0.068502866 0.13292618 0.12812829
0000a0 dc a7 25 3e 79 28 89 3d 7e b3 26 be da 76 28 be
       0.16177315 0.06697173 -0.16279408 -0.16451588
0000b0 9d 38 58 be e4 0a a7 3d 84 a0 32 3e e2 d7 05 be
       -0.21115346 0.08156374 0.17444044 -0.13070634
0000c0 7f c7 d3 bd 68 e5 f7 bc 94 44 f3 3d 90 13 36 3e
       -0.10340785 -0.030260757 0.118783146 0.177809
0000d0 f2 89 99 bd d8 f3 dd 3d db 86 94 bd de ab 12 bd
       -0.07497014 0.10837525 -0.07252284 -0.035808437
0000e0 62 0b cf 3c e3 21 63 3e 97 17 46 bd ea 4a 27 bd
       0.025273982 0.22180896 -0.04836234 -0.040842928
0000f0 4d 20 4e 3e e4 8b 0d 3e 7d c2 d2 bd e8 42 3f 3d
       0.2012951 0.13822895 -0.10291002 0.046694666

2.weight f4 [1, 64]
000000 28 bf 9a bd b7 d9 cd 3e f0 98 90 3d 51 16 d0 3e
       -0.075559914 0.40205166 0.070604205 0.40642026
000010 1b 4f 55 be 50 75 0a be 38 0b 9a 3d 40 53 0e 3f
       -0.20830958 -0.13521314 0.07521671 0.5559578
000020 e3 34 f2 3d 15 d5 fc 3d 72 c8 66 bd 50 2c 79 3e
       0.118264936 0.1234533 -0.056343503 0.2433331
000030 ae 06 29 bf 5a ff 01 3b 20 40 e8 3d 70 de ed be
       -0.6602582 0.001983604 0.11340356 -0.4645877
000040 ee 1a 95 3e f0 bf 06 bf 15 6c 03 3f 86 ec 7f 3e
       0.29122108 -0.52636623 0.51336795 0.2499257
000050 96 00 38 bd dc dd 81 bd b3 12 ad be 17 3b d7 3d
       -0.044922434 -0.063411444 -0.3380333 0.10509317
000060 37 ea 9b be ce 01 38 bc 76 0e bf bd 7e ab 13 3e
       -0.3045213 -0.011230899 -0.0932893 0.14420888
000070 56 98 2d 3e e4 47 1d 3e 96 7b 9f 3e f9 a0 ec bd
       0.16952643 0.15359455 0.31148976 -0.115541406
000080 12 8e 02 3f f5 05 49 3d 44 f0 8a be b7 3d 91 be
       0.5099803 0.049077947 -0.27136433 -0.28367397
000090 77 4e b3 3e 0e ad 4f be bf fd ec 3e 08 ed 70 3e
       0.350208 -0.20280859 0.46287343 0.2352792
0000a0 b5 78 aa 3e 7d 2d 74 3d 51 38 a6 be c2 14 d0 be
       0.33295217 0.059613694 -0.3246484 -0.40640837
0000b0 0c d6 01 bf 60 c1 1e 3e c8 9e b5 3e f4 8b a5 be
       -0.50717235 0.15503454 0.35472703 -0.32333338
0000c0 69 be 77 be 34 8d 61 bd 4e 14 8f 3e 65 11 c9 3e
       -0.2419373 -0.055066302 0.2794518 0.39271083
0000d0 f6 37 2d bd a8 07 7d 3e 34 df a7 bd 65 1e 93 bd
       -0.042289697 0.24709952 -0.081968695 -0.07183532
0000e0 d5 c4 f2 3d 17 0b ff 3e 5c 65 26 be 69 8e 19 bd
       0.11853949 0.49813148 -0.16249603 -0.03748933
0000f0 05 39 98 3e d6 50 a5 3e 39 22 3d be b4 69 f6 3d
       0.29731002 0.32288235 -0.18470086 0.1203188
