fcpo/model/tempmodel_ml-1m.pkl (torch_old, 163160 bytes, 5 tensors)

weight f4 [64, 500]
000000 cf 87 45 be 2c 13 e1 3d cb 68 75 3c 2a b9 a8 3c
       -0.19290088 0.10989985 0.014978598 0.020596106
000010 e2 11 d8 bd 1e ac e5 bd 81 a5 a4 bd 91 99 02 3d
       -0.10550286 -0.112144694 -0.0803938 0.031884734
000020 c3 c5 47 be 26 df c4 bd 46 e3 c3 bd 5e ea f8 3d
       -0.19509034 -0.09612875 -0.09564833 0.12154077
000030 7a 28 4e 3c 83 f5 82 bd 08 22 9c 3c 76 f1 3b 3d
       0.012582893 -0.06394484 0.019059196 0.045884572
000040 e2 54 92 3d 52 ea 34 3d 13 47 bf bd cf 22 f4 bd
       0.07145096 0.044168778 -0.09339728 -0.11920702
000050 4c bc e9 bd e9 d0 fa bd 56 52 f2 bc 92 4d 87 bd
       -0.11412868 -0.12246878 -0.029580276 -0.06606592
000060 2e dc 90 3d 50 14 fe 3d 11 3f 9a 3c 37 e9 e2 bd
       0.07073246 0.12406218 0.0188289 -0.110796385
000070 df c5 20 3e d0 74 5a bd a0 74 8e 3c 9f 3e d6 3d
       0.15700482 -0.053334057 0.017389596 0.10461163
000080 8c 53 f9 3d 98 0a 3a 3e 4d f4 f2 bd a1 a1 3f 3e
       0.121741384 0.18168104 -0.11863003 0.18714
000090 9e 8d b2 bd 4d 54 bf bd 40 d2 f0 3d 00 d6 36 be
       -0.087184176 -0.09342251 0.11758852 -0.17855072
0000a0 51 32 15 be 91 fb 18 3e 69 91 2c 3d 33 21 f5 bc
       -0.14569975 0.14939715 0.04213086 -0.029923057
0000b0 09 16 62 3d 60 ae a5 3e 30 67 48 3c cb 81 28 3e
       0.055196796 0.323596 0.012231633 0.16455762
0000c0 30 2a d0 bc 2d 29 61 3c 6c b9 b0 3d 8d b0 94 3d
       -0.025410742 0.013742727 0.086291164 0.07260237
0000d0 7d 62 3c 3e 20 b9 e0 3d bc 4a da bd 9b d1 9f bc
       0.18396945 0.1097281 -0.10658786 -0.019509127
0000e0 f2 de 30 be dd 9c c6 bd 89 81 19 bd 51 57 af bc
       -0.17272547 -0.09697888 -0.03747705 -0.02140394
0000f0 dc 2a 1f 3e 76 ae fe bd a2 16 41 3e 80 0f 75 bd
       0.15543693 -0.124356195 0.1885629 -0.059829235
000100 40 51 34 bb 39 0f 15 be c2 86 21 bd 7c 3c d3 bd
       -0.002751425 -0.14556588 -0.039435156 -0.10314271
000110 6b be bf bc e8 57 2e 3e 9f 52 8f 3c 98 ec 4c bd
       -0.023406228 0.17025721 0.017495451 -0.05003032
000120 77 2e 37 bd ac 85 0b 3e c2 40 6d 3d f0 f1 d0 bd
       -0.044722047 0.1362521 0.057923086 -0.10202396
000130 83 16 63 3c 80 21 39 3d 65 f1 e2 3d ed 16 8c 3d
       0.013860348 0.045197964 0.110811986 0.0684031
000140 c0 5d cd 3c 3f 4d 59 3e cd 74 97 bc 30 7e 5e 3d
       0.025069118 0.21220873 -0.018488312 0.05431956
000150 da 43 c7 3c 54 a8 6a 3d a9 b6 05 bb 78 d7 7f bd
       0.024324346 0.057289436 -0.0020403063 -0.062461346
000160 9a 1b 0d 3c 84 4f 5e 3d 23 0d 55 bc 2c d6 e8 3d
       0.008612538 0.05427505 -0.01300362 0.11368975
000170 12 38 3d 3b 2f 0a da 3c f9 c8 27 be d6 ef 48 bd
       0.0028872532 0.026616184 -0.16385259 -0.04905685
000180 30 e5 27 be 79 d8 8b 3d 09 8e d7 b9 7a b6 09 bd
       -0.16396022 0.06828398 -0.0004111382 -0.03362129
000190 ef af d6 bd 7a f2 01 3d 83 19 f1 3d f8 1e 84 3c
       -0.104827754 0.031725384 0.11772444 0.016128048
0001a0 89 b6 f0 bc d3 c4 a5 3d b0 4c 8c 3d 87 cd 53 3d
       -0.029383915 0.08094182 0.068505645 0.051709678
0001b0 16 c9 a7 3d f7 94 e9 bd e1 17 30 3e b8 7a a1 3d
       0.08192651 -0.11405366 0.17196609 0.07884735
0001c0 ae f4 ee bd c2 9e fa bd 32 76 07 3b 4f 85 1a bc
       -0.11667763 -0.12237312 0.0020669815 -0.009431197
0001d0 d9 56 ef bc 09 3b ff 3d a9 77 8f bd 7c b5 d4 3c
       -0.029216217 0.12462432 -0.07005245 0.025965445
0001e0 11 7e 1f be a3 69 ae bd af 59 da 3d 59 27 c1 3d
       -0.15575434 -0.08516242 0.10661637 0.09431333
0001f0 3d 78 99 3d fa 90 2a bd 1c 93 88 bd cd 55 93 3d
       0.07493637 -0.041642167 -0.06668684 0.071940996
000200 f2 28 6f 3d c6 6c a2 3c e8 ed 0b be f7 20 85 3c
       0.058388658 0.019827258 -0.13664973 0.01625107
000210 6e bc b0 3d ab 7e b6 bd df f2 60 bc 77 a7 48 bd
       0.0862969 -0.08910879 -0.01372978 -0.048987832
000220 ac ac 20 3c b8 fd b7 bd 35 dd a7 3b 6b eb 8b 3d
       0.009806793 -0.0898394 0.0051228055 0.06832012
000230 02 b9 6e bd 07 64 82 3d 6a 08 e9 bd 06 70 7d bc
       -0.058281906 0.06366735 -0.11378558 -0.015468603
000240 54 18 48 3e 80 fd c8 3c 46 1e 46 bd 87 ce d3 3c
       0.1954053 0.02453494 -0.048368715 0.025855316
000250 ba 3b 5c bd 8a c4 4e be 11 5a c0 bd 0f 76 9c 3d
       -0.053767897 -0.20192161 -0.09392179 0.076397054
000260 ff 99 7a bd 14 b9 f7 bc 63 6a 45 3e 76 d1 3d 3d
       -0.06118202 -0.03023962 0.19278865 0.046342336
000270 a3 1c 7c bd be 78 99 3d 49 39 95 bd f1 0a 62 bd
       -0.061550748 0.07493733 -0.07286317 -0.055186216
000280 c0 7b 39 3d 15 92 74 bc a5 7c cf 3d 82 0a 76 3d
       0.045284033 -0.014927407 0.10131196 0.060068615
000290 5c 34 d3 3c 74 8d ca 3b 77 e0 11 3d 17 c1 70 3d
       0.025781803 0.0061814133 0.035614457 0.058777895
0002a0 60 fb 06 bc d8 53 74 bc 48 6b 9f 3d 4a 51 95 bd
       -0.008238643 -0.014912568 0.07784134 -0.07290895
0002b0 5f 02 8e bc 35 31 37 bd 80 a0 f7 3c a7 d9 ae 3d
       -0.017335115 -0.04472466 0.0302279 0.08537608
0002c0 8d 13 2d be 5f bc 1d 3d 20 9e a2 3d 9b cd 90 3d
       -0.1690199 0.038509723 0.07940316 0.07070466
0002d0 cc 2c 95 bd 4d a0 c6 3d 9d 01 e2 bc e9 3d 36 3d
       -0.07283935 0.09698544 -0.02758866 0.044492636
0002e0 7b 24 29 3d c1 48 3b 3b 21 63 74 3d 0c a1 0d 3d
       0.041294556 0.00285773 0.05966485 0.034577414
0002f0 16 5d 44 3b 97 7f 92 bd 0c a9 59 bd 8a cd 6e bd
       0.002996271 -0.07153242 -0.05313973 -0.058301486
000300 f6 04 ef 3d 71 e9 cd 3c 2c 95 55 bd a9 e2 79 3d
       0.11670868 0.025135728 -0.052144215 0.061007176
000310 ad df b7 bc ff 02 9c bd 06 c2 35 3d 3b ff c2 3c
       -0.022445524 -0.07617759 0.04437449 0.023803344
000320 d2 64 0c bd 7f b3 22 3e ae e5 46 3c ba 6b f3 3d
       -0.034275837 0.15888785 0.012139721 0.118857816
000330 0f bd 45 3e 8a 80 75 bd 7c 28 a3 bc 73 d4 71 bd
       0.19310401 -0.059937038 -0.019916765 -0.059040498
000340 b8 a0 12 3e c3 98 88 3d 5c e1 93 3d 2b 98 2f be
       0.14319122 0.06669762 0.07220718 -0.17147891
000350 52 37 a0 bd a7 79 ed bd 80 3b b1 3d 8d 43 2a 3e
       -0.078230515 -0.11595469 0.08653927 0.16627331
000360 56 55 ca 3b c5 dc 21 3d 45 fa a3 bc fb 0d d4 bd
       0.0061747236 0.039517183 -0.020016799 -0.10354229
000370 2e 9e 46 3e 45 f5 3c 3e fb 8e 2d 3d 60 4f 05 bd
       0.19396278 0.18452938 0.042372685 -0.0325464
000380 ef df f9 bc b8 ba 0f 3d 7d d0 c3 bd 4f 3a f4 bd
       -0.030502288 0.03509018 -0.0956125 -0.11925184
000390 ff 49 50 3d 91 26 eb 3d 4b 21 7c 3d 86 d5 96 bd
       0.05085182 0.11481965 0.06155519 -0.07364945
0003a0 85 a1 35 bd af 5a 19 be 97 27 05 be 16 c6 80 bc
       -0.04434349 -0.14976 -0.13003384 -0.015719455
0003b0 c3 0f 83 3c 24 d9 58 be 7c ca e1 bb f1 84 d0 bd
       0.015998727 -0.21176583 -0.006890593 -0.101816066
0003c0 5a f1 9b be ae fc 92 bb ef 8e f6 bd dd d2 db 3d
       -0.30457574 -0.004485688 -0.12038981 0.10733578
0003d0 7d 7f 27 3e 54 13 e0 3d fb 03 c4 3d 49 19 90 bd
       0.16357227 0.109411865 0.09571072 -0.07036073
0003e0 f3 6b 5b 3c 3b da a6 3c ca a6 89 bd c4 a0 75 3d
       0.013392436 0.020367732 -0.067212656 0.05996777
0003f0 00 3b 12 bc c0 78 4f 3e 51 45 c3 bb 9b 64 78 bd
       -0.0089251995 0.20260906 -0.005959191 -0.06064282

bias f4 [64]
000000 bd 2d c6 be 2a d2 f6 bc f6 2b 1a 3e 90 28 87 3d
       -0.3870677 -0.03012951 0.15055832 0.065995336
000010 61 6b 83 3c 13 1a b7 bb df 07 cb 3d b0 36 60 bd
       0.016042413 -0.005587825 0.09913611 -0.054739654
000020 04 24 22 3f 4b 85 34 bd 22 84 84 3d b9 3f 21 3d
       0.63336205 -0.04407243 0.06470515 0.03936741
000030 b8 e3 90 3e c8 95 3c bc 65 63 82 3d 29 78 06 3d
       0.28298736 -0.01151032 0.06366614 0.032829437
000040 9d eb 2d be 52 67 8a be fe 2e 7d 3d ad 65 8c 3b
       -0.1698441 -0.27031952 0.061812393 0.0042845816
000050 92 3c 9b 3d 1c ab cb bc 5f f7 09 3d c7 8e 8d bd
       0.07579912 -0.024861865 0.033683177 -0.06911998
000060 69 e3 76 bd 33 6c 02 3e 11 7f 2b bd 5f f2 d1 3d
       -0.06027547 0.12736587 -0.041869227 0.10251307
000070 e6 20 6f 3e 22 7e fd bc c4 ff 2d 3c 27 84 f7 3c
       0.23352394 -0.030943934 0.010620061 0.030214382
000080 09 a0 f4 3d d3 33 ab be ce 4e a1 3e ab de 4a be
       0.11944587 -0.33437976 0.31505436 -0.19811504
000090 31 4a 5b 3d c0 52 a8 3d 4c 0d 10 be 6d 37 6c 3e
       0.05353755 0.08218908 -0.14067572 0.23068018
0000a0 3a 73 bd bb a1 e7 38 3c de 6b 2a 3d b3 77 db 3d
       -0.0057815583 0.011285693 0.041606776 0.1071619
0000b0 b2 e3 85 3c 3d 24 ca bb 7b bf a7 3c 65 cc 71 3e
       0.016343925 -0.0061688707 0.020477047 0.23613127
0000c0 63 a2 18 bc 86 42 0a bb 0c ed ae bd a1 1b 45 3d
       -0.00931606 -0.002109678 -0.08541307 0.048122052
0000d0 0e 5e c0 3b 97 49 f5 3c 35 03 40 3e 63 21 c0 3e
       0.005870587 0.029942317 0.18751223 0.37525472
0000e0 5f 88 82 bc 5e 39 f1 bc d9 00 a7 3d d9 6e 16 3d
       -0.015934167 -0.0294463 0.081544586 0.036726806
0000f0 70 6e a3 3e ad 57 ff bd 2b 5d a0 bd bd d9 f2 3c
       0.31920195 -0.12467895 -0.078302704 0.029644841

weight f4 [100, 64]
000000 c3 e3 ee 3d 19 33 8e bc 3d 89 9c 3d 0c c0 8b 3d
       0.11664536 -0.01735835 0.076433636 0.068237394
000010 b9 e5 f9 bd 4c 3e 23 3d fe 72 4b bd fe de 26 bd
       -0.12202019 0.039854333 -0.049670212 -0.040740006
000020 a0 9b 9e 3e 4c 70 cd bd 78 cb 8a bd 8e 9f b3 ba
       0.30978107 -0.100311846 -0.0677709 -0.0013704167
000030 38 9a 95 3d a1 e8 53 3b 02 11 ee 3c f2 51 76 bd
       0.073048055 0.0032334703 0.029060844 -0.060136743
000040 20 88 b5 bd f8 71 cb bd 51 69 c4 3d b0 a8 0c 3d
       -0.088638544 -0.09933847 0.095904 0.03434056
000050 e2 c4 b7 bd ca 51 a8 3d d3 67 11 3d 5a ce 5d bd
       -0.08973099 0.08218725 0.035499405 -0.05415187
000060 1a f8 c5 3d 9f 1e c4 bd 77 79 33 bd c4 86 b8 bd
       0.09666462 -0.09576153 -0.04381701 -0.090100795
000070 51 c3 dc bd 72 d7 9f 3b 03 ca 58 bc bf ef d9 bd
       -0.10779441 0.004877978 -0.013231757 -0.10641431
000080 f4 ab a8 3d 1e ec ea 3d 06 d8 a4 bd d6 01 ae 3d
       0.082359225 0.11470817 -0.08049016 0.08496444
000090 fc 53 78 bd c8 f4 03 3d 39 37 0f 3e d4 d7 f6 3d
       -0.06062697 0.032215863 0.1398591 0.12052885
0000a0 2d 32 d5 3d be 6d 90 bd bd 61 10 3d eb 87 15 3d
       0.10409961 -0.07052182 0.03524946 0.036506575
0000b0 4f 53 9c 3c 23 c3 1a 3c ac 41 5a bd ed 53 87 bd
       0.019082693 0.009445938 -0.053285286 -0.066078044
0000c0 0d ad 02 bd 01 97 81 bc 54 9f 35 3c 9b b0 94 3c
       -0.031903315 -0.015819075 0.01108535 0.018150618
0000d0 06 64 88 bc 2b 65 cd 3d 3b 23 33 3e dd 96 fa bd
       -0.016649257 0.10029062 0.17493908 -0.12235806
0000e0 d6 7e 60 bd bf 1e 00 be 24 4c 80 3c 92 59 17 3c
       -0.05480846 -0.12511729 0.015661307 0.009237664
0000f0 55 b4 84 bd e6 f9 06 3e c3 86 4f bd 31 37 ad 3d
       -0.06479708 0.13181266 -0.05066563 0.084577926
000100 ef 68 02 3d 0a b8 c3 3c 38 11 5c bc c5 a7 b0 3c
       0.031838354 0.023891468 -0.01343184 0.021564374
000110 38 4a c1 3c 89 30 72 bc 19 42 92 bd b8 66 3f bd
       0.02359496 -0.0147820795 -0.071415134 -0.04672882
000120 ea fe 1d be 2c 5f 5f 3c b2 b5 15 bd 74 9a 3f bb
       -0.15429273 0.013633531 -0.03655023 -0.0029236348
000130 d0 25 6d 3c 34 bb 64 bd 23 95 70 bd ea 80 31 3d
       0.014474347 -0.055842593 -0.058735978 0.043335833
000140 27 7c d4 3d 10 40 0c 3c b0 88 54 3d 9a 2a 19 bd
       0.10375243 0.008560196 0.051888168 -0.037394144
000150 71 d9 92 3c 5a 0f 45 bc 63 a0 9e 3b db 14 f2 bc
       0.01792595 -0.012027586 0.004840897 -0.02955096
000160 72 fb 32 3c ec 10 47 3d ed 29 27 bd 1e 3e 6c 3c
       0.010924207 0.048600122 -0.040811468 0.014419107
000170 a6 b5 9e 3d 38 50 7f 3b d7 8d ae 3b cd 9e 9d 3c
       0.077494904 0.0038957726 0.005326967 0.019240761
000180 d2 9f e4 bc 8b 89 b2 bc 15 83 55 3c bf ac 43 bd
       -0.02790824 -0.021794101 0.013031741 -0.047772165
000190 07 8e 59 3d 50 b6 3c 3d 2b fa 3c 3d 17 7d 2d bd
       0.053113963 0.046072304 0.046137016 -0.042355623
0001a0 da 37 90 bd 63 71 7a 3d 3a 64 7d 3d 00 25 9d bc
       -0.07041903 0.06114329 0.06186316 -0.019182682
0001b0 b8 ca 37 3c 38 06 49 bc 94 04 cd 3c 1c 1b 11 3d
       0.0112177655 -0.012269549 0.025026597 0.035426244
0001c0 12 09 16 3c e1 3d 17 3b bf 74 b0 bd aa 52 07 3c
       0.009157436 0.0023077654 -0.086160176 0.008259455
0001d0 16 35 48 3d 5a 40 44 bc 6f f0 51 bd b6 ca 2f bd
       0.04887875 -0.011978233 -0.051254686 -0.04291793
0001e0 86 88 21 bc a0 1f 2e bc 9c 61 b2 3c fc 7c c7 bc
       -0.00985921 -0.010627657 0.02177506 -0.02435159
0001f0 b7 69 be 3c 99 6e 81 bc 5e c0 95 3a e8 2c 08 3d
       0.023243768 -0.015799807 0.0011425128 0.03324595
000200 ff 3a 08 be f9 c0 80 bb 33 15 d9 bc 7a 55 23 bc
       -0.13303755 -0.003929254 -0.026499366 -0.00996911
000210 72 ea f5 3c 12 07 bb 3d 3d 9a 39 3e 4f 37 15 bc
       0.030019019 0.09132208 0.18125243 -0.009107425
000220 06 bd 52 be ab 6e 9c 3d 86 a0 3f 3d 13 6e 23 3d
       -0.20579919 0.07638296 0.046783946 0.039899897
000230 19 94 d2 bd df 9f 08 3c fa e5 c6 bb 12 6c 9c bc
       -0.10282154 0.0083388975 -0.006069896 -0.0190945
000240 0c c1 b8 3d 6d 70 2a 3e c6 eb b9 bd ea 36 4f 3d
       0.09021196 0.1664445 -0.09078173 0.05058948
000250 14 4c 2f 3d 4f 41 9b 3d ab df b8 bd fc 7c f9 3c
       0.042797163 0.07580816 -0.09027036 0.030455105
000260 28 8f 21 3d fe d3 2d 3d e8 87 aa bc 56 a5 07 3d
       0.039443165 0.0424385 -0.020816758 0.03311666
000270 66 1c 69 3d 07 0a 71 bd a6 80 a5 bb 8e 96 65 3d
       0.05691185 -0.058847453 -0.0050507365 0.056051783
000280 fa 07 7f bd d7 a3 14 3c 4d 53 0c 3e 7a 65 e3 bc
       -0.062263466 0.009072266 0.13703652 -0.027758349
000290 df 45 e8 bc ed 67 da 3c c2 fe 9a bd 60 3b 2c bd
       -0.02835363 0.026660884 -0.075681224 -0.042048812
0002a0 70 8c 40 bd 37 18 69 bd b1 eb 9a bb 6c c4 74 bc
       -0.04700893 -0.05690786 -0.0047278036 -0.014939409
0002b0 26 78 93 ba 4c 58 63 3d 41 ee 39 3d b1 78 e1 3d
       -0.0011251017 0.05550413 0.045393232 0.11009348
0002c0 1c 8c 49 3d 1d d6 8f 3d a6 f1 a9 3d 59 3f 82 bd
       0.049205884 0.07023261 0.08298044 -0.06359739
0002d0 9e b9 ed bc ac 69 62 bd 12 ac 15 bd eb f6 e6 3d
       -0.029019173 -0.055276558 -0.036541052 0.112775646
0002e0 d0 6f b7 bd f5 da f1 3c 9e c5 5e bc 04 5f bb 3d
       -0.089568734 0.029523352 -0.01359692 0.09148982
0002f0 c9 ce 8f 3d f6 d9 62 bd 47 5e a2 3c 54 d6 1c bd
       0.07021863 -0.055383645 0.019820346 -0.038290337
000300 aa 7a 1b be 1b 91 b6 3c f3 89 c7 bd e5 2c f7 bc
       -0.15183511 0.022285989 -0.097431086 -0.030172775
000310 69 72 3c 3d ad 0f 3f 3d 19 94 32 3e 3d ae 9a 3b
       0.046007548 0.04664581 0.17439307 0.004720478
000320 db 8e b1 be 4c e0 88 3d c4 87 fa 3c 51 4e 08 bc
       -0.34679303 0.06683406 0.030582316 -0.008319453
000330 5a f1 8e bd b0 ea d9 bb bd a2 0c bc a6 db 75 bb
       -0.06979628 -0.0066502914 -0.008583722 -0.0037514954
000340 7e d0 60 3d c8 5a f9 3d 6f b8 ca bd 81 34 d1 3a
       0.054886334 0.12175518 -0.09898459 0.0015961082
000350 43 81 aa 3d f6 70 09 3d 0a 7a 6e 3c 39 84 09 3c
       0.08325436 0.033554994 0.014555464 0.008393341
000360 77 fe 1f 3d c8 f9 33 3d 43 e2 25 3a f6 7a 3d 3d
       0.039061036 0.04393938 0.0006327966 0.046259843
000370 95 f0 e7 3d cc 0d d0 3c d4 d8 b6 3d 9e 9b 5f 3d
       0.11325184 0.025397204 0.089280754 0.054591767
000380 5d 33 bd bc 4d 7a 05 be 03 8a 9a 3d ef 7f d1 bd
       -0.023095781 -0.13034935 0.07545855 -0.102294795
000390 8f 83 68 3d e4 8b a9 bd ba 60 8d bd 39 7d e4 bd
       0.05676609 -0.08278635 -0.06903215 -0.11156697
0003a0 2f 61 82 bd 48 75 8e 3d 71 97 23 bd 47 86 5c bd
       -0.063661925 0.069559634 -0.039939348 -0.053838994
0003b0 85 dc 1f bc ab 5f 89 3b 91 d1 89 3d 3c 9a e2 3d
       -0.009757166 0.0041923127 0.06729425 0.11064574
0003c0 e7 5f 50 3c a6 75 fa 3c bd ce e8 3b a2 f8 30 bd
       0.012718177 0.030573677 0.0071047232 -0.043205865
0003d0 32 98 e7 3c cc 31 88 bc b4 5d 8e bd bc 98 27 3e
       0.028270815 -0.016625308 -0.06951466 0.16366857
0003e0 a3 e8 ab 3a e6 2a 0e 3e 17 89 8f bc 3f d5 e4 bc
       0.0013115596 0.13883552 -0.017521424 -0.027933715
0003f0 84 47 a9 3d 0f d4 f7 bd ae 95 99 bb 72 10 9d bd
       0.08265594 -0.12100994 -0.0046870327 -0.07669152

bias f4 [100]
000000 25 d6 a6 3d 1b 49 c7 bd 57 66 b5 bd 52 14 09 3c
       0.081463136 -0.09730741 -0.088574104 0.008366661
000010 f7 e6 69 3d d2 79 44 bd ae a9 8b 3d a4 be 42 be
       0.05710503 -0.04796774 0.06819473 -0.19018036
000020 78 45 8c 3d 85 fd 85 bd 85 22 40 bd ed d6 46 bc
       0.068491876 -0.06542496 -0.04690792 -0.012136203
000030 25 d1 aa bc 3a 49 37 3d 96 d7 30 bb 6d 3d 0d bc
       -0.020851681 0.04474757 -0.0026983968 -0.008620602
000040 27 ff bd 3d 95 9a 39 bd dd 6d 18 3e 71 82 07 3e
       0.09277182 -0.045313437 0.1488566 0.13233353
000050 9b d9 35 3d 75 43 ff 3c 59 d3 a3 bc e1 0f 02 3b
       0.044396978 0.031160096 -0.01999824 0.001984589
000060 4e 0a 0b bd 01 da 2f bd c7 55 4f bd 48 60 1a 3b
       -0.033945374 -0.042932514 -0.050618913 0.0023555923
000070 f6 5a 5e bd e6 2e f4 3d f0 cd c4 bd 09 05 c5 3d
       -0.054285966 0.11923008 -0.09609592 0.09620101
000080 86 26 ef 3d aa c1 cc 3d 13 4d bb 3c 87 c5 71 3d
       0.1167727 0.09997876 0.0228639 0.059026267
000090 d1 18 ad bd 94 85 3b 3d a6 84 18 3c 98 2e 27 bd
       -0.08451999 0.045781687 0.00930897 -0.04081592
0000a0 23 4b 55 bd c8 fc 3a 3d 82 cf ae 3b 9e d6 a4 bd
       -0.05207361 0.045651227 0.0053347955 -0.080487475
0000b0 f3 d7 e9 3a d5 9c c3 bc 10 b9 32 3d 57 cb d0 bc
       0.0017840847 -0.023878494 0.04363352 -0.025487585
0000c0 fc e8 9b bd d9 4c 9e bd 3e 12 1d bd b2 39 91 bc
       -0.076127976 -0.07729501 -0.038347475 -0.017727707
0000d0 1d a8 02 3b 4c 00 9c 3c 0e 48 4e bc 74 59 a2 bd
       0.001993663 0.01904311 -0.012590421 -0.07927218
0000e0 a9 80 8d 3d 80 e1 a5 3d d8 2a 68 bd 16 78 2f ba
       0.069093056 0.08099651 -0.056681484 -0.00066936144
0000f0 e7 a2 85 3d 20 5b ba 3d 45 77 89 bc c6 5f c5 3d
       0.06525212 0.09099412 -0.016780505 0.09637408
000100 8b 8f 2e 3c 95 1f f6 bd 5b 70 a6 3c 79 8a c2 3d
       0.0106543405 -0.120177425 0.020317247 0.09499068
000110 79 5c 34 bd ee fe 4f be 8c 1c 74 3d a4 da 30 bd
       -0.0440335 -0.20312092 0.059597537 -0.043177262
000120 3b db 09 bd 33 ca e3 bd 8c 74 de 3d 10 7b 84 3c
       -0.03365634 -0.11122551 0.10862073 0.016171962
000130 37 55 c5 3c 51 40 eb 3b 84 68 7b ba 0b 38 9b 3d
       0.024088485 0.007179298 -0.0009590464 0.07579049
000140 6f 53 ce 3c 13 49 05 3e 42 14 8d 3d ea 39 44 bd
       0.025186269 0.13016157 0.068886295 -0.047906794
000150 93 56 9b bd 0b 19 94 bd 48 4e 0a bc e9 8e 28 3d
       -0.07584872 -0.07231339 -0.008441515 0.041151915
000160 d5 9d cd 3d 4a d3 1e bd de 36 9c 3d 88 c6 a1 bc
       0.1003987 -0.03877572 0.076276526 -0.019747987
000170 be 10 4a bd df 2c 48 3d c4 c0 8f 3d 1c a8 d5 bd
       -0.049332373 0.048870917 0.07019189 -0.10432455
000180 c7 e1 b9 3d 3d fe ba 3c e0 03 c8 3d 02 35 28 bd
       0.09076267 0.022826308 0.09766364 -0.041066177

log_std f4 [100]
000000 50 2b 86 bd be ba 5e bd 7f 94 1d bd b5 db 44 bd
       -0.0655123 -0.05437731 -0.038471695 -0.04806109
000010 ae aa 07 bd ce 80 c6 bd cc d7 54 bc 17 10 97 bd
       -0.033121757 -0.09692536 -0.012990903 -0.07376116
000020 dc 8e 1d bd 84 99 03 bd 56 cc 32 be 73 3d fb bc
       -0.03846632 -0.032128826 -0.1746076 -0.03066895
000030 b2 d3 65 bd ce b5 9b bc cc 6f d0 bc 6f ca c1 bc
       -0.05611009 -0.01900759 -0.025443934 -0.023656098
000040 a5 9f 86 bd cd 2f 11 bf 64 31 b2 be 64 3a a0 bf
       -0.065734185 -0.56713563 -0.34803307 -1.251782
000050 cd d3 13 bb e1 15 5a bd 7e 6a 34 bd 9a 11 0a bd
       -0.0022556663 -0.05324352 -0.04404687 -0.033708192
000060 2f 66 dd bd af cd 65 be 53 88 3d be 08 4e 04 bd
       -0.108105056 -0.22441743 -0.18509035 -0.03230098
000070 e7 d7 04 bd 94 e6 21 be 09 a6 d7 bd 53 40 10 bf
       -0.032432463 -0.15810615 -0.105297156 -0.5634815
000080 07 45 01 bd 09 7f 34 bd 5c 8f cb be 85 2c de be
       -0.03155997 -0.044066463 -0.39757812 -0.4339334
000090 25 4f 9f bc 23 f7 1d bc 9a b1 9a bc 43 11 f1 bd
       -0.019446919 -0.0096414415 -0.018883515 -0.117708705
0000a0 4b 9b 03 be 78 6a 14 bd 42 c4 a2 bb dc 12 41 bd
       -0.12852208 -0.03623435 -0.0049672434 -0.047137126
0000b0 76 73 42 bc 43 bc 13 bd be ec e3 bc 4b 76 84 be
       -0.011868348 -0.036068212 -0.027822848 -0.258715
0000c0 6b 95 b0 bc d1 bf 9f bf 5d 7d 54 bc 33 d2 b0 bd
       -0.021555623 -1.2480413 -0.012969342 -0.08633842
0000d0 ca 51 e9 bc ee 5e c8 bc 18 5b 6d bd 0b 8f 5f bd
       -0.028481383 -0.024459329 -0.057948202 -0.054579776
0000e0 fd 63 05 bd c9 67 67 bd cd ad 76 bc a1 6d a8 bd
       -0.03256606 -0.05649546 -0.015056086 -0.08224035
0000f0 ab 40 c5 bc 3c bc c7 bc e7 fb 0c bf 0e 53 18 bd
       -0.024078688 -0.02438175 -0.5507187 -0.037188582
000100 08 6a 02 be 10 a2 4d bd 3e 89 cd bb f2 ba 4e be
       -0.1273576 -0.050203383 -0.006272464 -0.20188501
000110 e4 0d 11 bc 3a 32 93 bd 66 a6 c5 bd f7 ef da be
       -0.008853409 -0.07187314 -0.096508786 -0.42761204
000120 85 d3 36 bc 12 f4 0c bd 61 ca a9 bc 73 df 47 bc
       -0.011158829 -0.03441245 -0.020726385 -0.012199271
000130 df b8 d1 bc 4e 69 7e bd dd f6 06 be 8a 55 03 be
       -0.025600849 -0.062112145 -0.13180108 -0.128256
000140 7f 22 93 bc 36 45 48 bd 0d 36 de bc ce 39 4f bf
       -0.017960785 -0.04889413 -0.027125383 -0.8094758
000150 26 b0 07 bd c0 b6 07 be 8f 78 aa bc 09 22 02 bf
       -0.033126973 -0.13253307 -0.02080944 -0.50833184
000160 16 ed b7 bd 14 68 45 bd 77 e2 f4 bc 82 41 51 be
       -0.089807674 -0.04819496 -0.029893143 -0.20435145
000170 8c 9e e3 bb 08 91 79 bd 57 90 0e bd 2c 65 89 be
       -0.0069463905 -0.06092933 -0.034805622 -0.26835
000180 d1 fc 45 bd c6 2e b6 3a 3d 1b d4 bd e7 54 fc bc
       -0.048336808 0.0013899438 -0.10356758 -0.030802203
